pytorch/cifar_net.pth (torch, 250887 bytes, 10 tensors)

conv1.weight f4 [6, 3, 5, 5]
-0.015223681 -0.08544908 -0.01725251 -0.038136248 0.108823575 -0.11239597 -0.038391676 0.027041843
0.13296367 -0.014577427 -0.036576737 -0.068548754 0.08556693 -0.014294406 -0.0072668195 -0.008684981
0.0071785487 0.082578614 -0.084650554 0.061538223 0.07513248 -0.022350268 0.024154713 -0.07079045
0.07323976 -0.04904306 0.1174131 -0.09088988 -0.050681602 0.14533742 0.08177121 -0.034324575
0.09634718 0.013712933 0.068942174 0.007839704 -0.11236238 -0.09124185 0.11138522 0.011600455
0.104953095 -0.015774585 0.10173732 -0.016957896 0.05640716 0.12952217 0.11582392 -0.010335585
0.021450654 -0.056950998 -0.079160936 -0.081080906 0.1007141 -0.023170391 0.1191444 -0.09401319
-0.11407572 0.06069253 0.031187432 0.12736422 0.06323739 0.05350713 0.012476596 0.105946615
0.019347545 -0.09271864 -0.017559526 0.011808314 0.12721436 0.10244062 -0.035900842 0.099581845
0.03865336 0.000498851 -0.015141112 0.16780984 0.263187 0.15397066 0.35363683 0.35050282
0.2521987 0.15664022 0.3124488 0.36070845 0.2930838 0.2945143 0.22593255 0.14972499
0.28997207 0.15836725 0.29470527 0.2432607 0.1310532 0.19430006 0.11206662 0.12559073
0.13134012 0.25090364 0.09609941 0.26529217 0.48951906 0.33270243 0.372176 0.4634491
0.37861022 0.33394065 0.3222076 0.33251047 0.44451255 0.40207234 0.28654858 0.30480343
0.37902236 0.4066823 0.31889176 0.32587698 0.42641464 0.39010644 0.42085853 0.28231397
0.42529592 0.25376588 0.4335326 0.39188614 0.28007758 0.22433025 0.19056222 0.28412718
0.35687825 0.28025275 0.34963438 0.33922583 0.24439281 0.24596108 0.3973008 0.18031217
0.31811306 0.2312214 0.27786833 0.39306334 0.26729208 0.10997953 0.14688262 0.35956952
0.1795517 0.14739141 0.17905954 0.17681244 0.10649281 0.13678034 -0.10582335 0.030160375
-0.08100714 -0.031180184 -0.0958529 -0.05631368 -0.066920094 0.031650662 0.042406913 0.03611992
0.037393883 -0.027814047 -0.013308746 -0.051154666 0.08099572 0.037553407 -0.02064206 0.1372581
-0.06537178 -0.06527998 0.09049726 0.01528456 0.07500886 0.09644489 -0.046191443 0.03783339
0.10312913 0.060359538 -0.08076651 0.069414265 0.069151804 0.13173772 -0.055854782 0.07458268
-0.041006856 0.026576446 0.16817644 0.054367285 0.040189203 0.04498043 0.09262933 -0.0031873144
-0.040851593 0.09221068 0.008338484 0.06251822 -0.020959362 0.014499446 0.020154117 -0.028958494
0.10357246 0.060939822 0.1291916 -0.016277485 -0.051412728 0.06810189 -0.023996618 0.124756575
-0.023864264 0.07155532 0.12373546 0.0009786967 -0.03603576 0.039757483 0.1020444 0.120748185
0.12117331 0.039746217 0.03220538 0.110826515 0.061070293 0.10502047 0.09477028 0.059931878
-0.0010605315 0.054303467 0.05120274 -0.089719735 -0.052836947 -0.04645691 -0.011596774 -0.04907052
0.09772528 0.09320213 -0.04199251 0.043907244 0.045765195 -0.023546208 0.09879193 -0.0100104865
-0.021934198 -0.09753423 0.028323455 0.022667406 0.04090067 0.051001105 0.0283117 -0.047812417
-0.062751785 -0.07769536 -0.084012754 0.07494788 0.009251344 0.10645033 0.09128272 0.056976415
00000000: bf6c 79bc edff aebd 2355 8dbc c134 1cbd
00000010: e5de de3d dc2f e6bd 9740 1dbd db86 dd3c
00000020: a127 083e 29d6 6ebc 7dd1 15bd 4a63 8cbd
00000030: b73d af3d 1633 6abc 801e eebb 734b 0ebc
00000040: 083a eb3b fa1e a93d 455d adbd 810f 7c3d
00000050: 0fdf 993d e917 b7bc 1be0 c53c 95fa 90bd
00000060: bafe 953d 60e1 48bd 4876 f03d 7924 babd
00000070: 8397 4fbd 55d3 143e aa77 a73d ed97 0cbd
00000080: ac51 c53d 36ac 603c 8e31 8d3d 1a72 003c
00000090: 3f1e e6bd 02dd babd ef1d e43d d60f 3e3c
000000a0: a6f1 d63d b439 81bc a85b d03d 49eb 8abc
000000b0: 320b 673d 76a1 043e 1735 ed3d 9656 29bc
000000c0: 48b9 af3c 7345 69bd 211f a2bd bf0d a6bd
000000d0: 3243 ce3d d5cf bdbc fb01 f43d fd89 c0bd
000000e0: 88a0 e9bd bb98 783d c97c ff3c c46b 023e
000000f0: 9b82 813d 4b2a 5b3d a36a 4c3c 8afa d83d
00000100: be7e 9e3c 45e3 bdbd ffd8 8fbc a977 413c
00000110: 7b44 023e 63cc d13d c30c 13bd 91f1 cb3d
00000120: fc52 1e3d 53c5 023a 6d12 78bc 58d6 2b3e
00000130: 72c0 863e 7caa 1d3e e30f b53e 1b75 b33e
00000140: 3020 813e 4b66 203e 4af9 9f3e c7ae b83e
00000150: 140f 963e 94ca 963e dd5a 673e 8251 193e
00000160: 3877 943e 062b 223e 9ce3 963e 5519 793e
00000170: cf32 063e 98f6 463e 2f83 e53d db9a 003e
00000180: 067e 063e 7176 803e c4cf c43d 60d4 873e
00000190: 3ea2 fa3e f957 aa3e da8d be3e 3349 ed3e
000001a0: 33d9 c13e 45fa aa3e 65f8 a43e d03e aa3e
000001b0: 2697 e33e 6ddc cd3e 7fb6 923e 320f 9c3e
000001c0: 380f c23e aa38 d03e c845 a33e 59d9 a63e
000001d0: 0553 da3e 08bc c73e c57a d73e 758b 903e
000001e0: 63c0 d93e 9aed 813e fcf7 dd3e 4da5 c83e
000001f0: 5466 8f3e d4b6 653e be22 433e 1e79 913e
00000200: bfb8 b63e 4a7d 8f3e 4703 b33e 02af ad3e
00000210: 1c42 7a3e 39dd 7b3e 036b cb3e c1a3 383e
00000220: b7df a23e 4dc5 6c3e c244 8e3e 993f c93e
00000230: 82da 883e f33c e13d 6668 163e 7f19 b83e
00000240: 67dc 373e c6ed 163e 625b 373e 520e 353e
00000250: e718 da3d 2510 0c3e eab9 d8bd e412 f73c
00000260: 12e7 a5bd 966d ffbc 864e c4bd 2ca9 66bd
00000270: 670d 89bd 20a4 013d dfb2 2d3d 7bf2 133d
00000280: 542a 193d 49da e3bc ed0c 5abc 8e87 51bd
00000290: 16e1 a53d 9ad1 193d 8a19 a9bc 638d 0c3e
000002a0: a4e1 85bd 83b1 85bd a156 b93d 176c 7a3c
000002b0: 3f9e 993d e684 c53d 3d33 3dbd 2ff7 1a3d
000002c0: 5e35 d33d 903b 773d e968 a5bd 1129 8e3d
000002d0: 769f 8d3d 41e6 063e fcc7 64bd cebe 983d
000002e0: cef6 27bd d9b6 d93c 7236 2c3e 3bb0 5e3d
000002f0: 6f9d 243d 663d 383d 72b4 bd3d 43e2 50bb
00000300: 0054 27bd f4d8 bc3d 239e 083c 8d09 803d
00000310: f8b2 abbc 168f 6d3c 3f1a a53c 5d3a edbc
00000320: cc1d d43d 099c 793d ce4a 043e 5c58 85bc
00000330: 2796 52bd 0179 8b3d 8e94 c4bc 6080 ff3d
00000340: fd7e c3bc 988b 923d 0469 fd3d 9d47 803a
00000350: 3c9a 13bd bed8 223d a8fc d03d d34a f73d
00000360: b629 f83d eecc 223d cae9 033d 03f9 e23d
00000370: d824 7a3d f914 d73d ec16 c23d 217b 753d
00000380: 8801 8bba 506d 5e3d f7b9 513d fbbe b7bd
00000390: 8e6b 58bd 9a49 3ebd 6500 3ebc 2bfe 48bd
000003a0: 3124 c83d c2e0 be3d 5700 2cbd 15d8 333d
000003b0: 4974 3b3d fae3 c0bc 6c53 ca3d 0603 24bc
000003c0: 59af b3bc 07c0 c7bd 9706 e83c ffb0 b93c
000003d0: 7687 273d 89e6 503d f0ed e73c f4d6 43bd
000003e0: 0284 80bd bf1e 9fbd e10e acbd 467e 993d
000003f0: f392 173c a102 da3d 6ff2 ba3d 1a60 693d

conv1.bias f4 [6]
-0.11776829 -0.15510169 -0.32722378 -0.21109131 -0.82200915 -0.58896106
00000000: 8030 f1bd fad2 1ebe e089 a7be 5228 58be
00000010: 316f 52bf 27c6 16bf

conv2.weight f4 [16, 6, 5, 5]
-0.09474349 0.030719597 -0.017368386 0.008360487 -0.0069711725 -0.07614158 -0.0076485444 -0.07428124
-0.04648054 -0.09536745 -0.014838587 -0.008956036 -0.09145942 0.044151347 -0.048914757 -0.06310701
0.05351513 0.054303013 -0.08639327 0.0070558833 0.0642071 0.043147672 0.0272186 -0.057342988
-0.048233096 -0.017421212 -0.014034369 -0.092279285 0.02156711 -0.11060441 -0.0036969741 -0.10047635
-0.06519716 0.00010627678 -0.11420601 -0.10854386 -0.08992891 -0.06467096 -0.028527224 -0.11739353
-0.07072851 0.0016576375 -0.074609324 -0.04683108 -0.04926098 -0.06499883 -0.0795594 -0.026673933
-0.03514485 -0.1630791 0.035572223 0.020532986 0.015210969 0.010360913 0.038130406 -0.0007017548
-0.056728177 -0.104008846 -0.07692504 -0.02115746 0.035815425 0.022740936 -0.013007194 -0.02961086
0.0108739305 -0.07538749 -0.059532598 0.04004644 -0.0041010515 -0.07934507 -0.05041937 -0.04749658
0.0054356125 0.044230428 0.04465711 0.022017347 -0.016564626 0.030034764 0.023104899 -0.06907382
-0.012650655 -0.048637755 0.080902755 -0.027183771 -0.05325188 0.0073870104 0.056221135 0.07023649
-0.011602772 -0.07915625 0.029012386 -0.01720827 -0.04055671 0.036837794 -0.02669665 -0.021724327
0.01623536 0.006939523 -0.07805768 0.058763355 -0.15051252 -0.12021876 -0.032235097 -0.08291056
-0.059382718 -0.14729163 -0.041719023 -0.10914521 -0.08980866 -0.050280705 -0.11453768 -0.04495742
-0.16126809 -0.03144303 -0.06654293 -0.084590875 -0.108032204 -0.15425906 -0.035227492 -0.0326661
-0.114576556 -0.041757148 -0.013792865 -0.07910868 -0.095388755 0.007862689 -0.022248197 0.0060541863
-0.04739543 0.062089857 -0.104049504 0.0569476 -0.032861095 -0.03968279 -0.03390867 0.05717266
0.06753937 0.015417556 -0.07668617 -0.024837848 0.009811005 -0.010668017 -0.060612544 0.057402372
0.06469451 0.0317934 -0.037290566 -0.06489737 -0.021943266 -0.07544209 0.005015608 0.031536896
-0.009498304 -0.04124532 0.059826527 -0.08345166 0.044874478 -0.05167235 -0.031597532 -0.0102824755
-0.0036458378 -0.071839206 0.04026534 -0.01697985 -0.013157066 -0.017536344 -0.012122018 0.021085255
0.010434632 -0.09033691 -0.0017958392 -0.06076606 0.014736405 0.035669476 0.054203134 -0.04602593
-0.07035332 0.0047076256 -0.07380464 -0.07256418 -0.10615407 0.035686255 -0.06426455 -0.01514852
-0.04629148 -0.04936757 -0.08952629 0.057519183 -0.07591606 -0.012797579 0.030978238 -0.056035604
-0.03889562 -0.07495889 -0.08477219 -0.07640973 -0.036815424 0.008984888 -0.06506722 -0.020222593
0.026679158 -0.033052072 -0.04786066 0.019743774 0.066197164 0.058188993 -0.061035816 0.04078628
0.012749694 -0.07914 0.016996548 0.050191227 -0.05513562 -0.02881124 0.06743982 0.065792166
-0.030609012 0.03204446 -0.020857666 -0.027661119 -0.019405242 -0.0040630177 0.013605655 0.008077585
-0.0737699 0.03739046 0.038263787 -0.07415578 -0.025771154 0.030595826 0.005550508 0.058848258
0.015765186 0.072020374 -0.061792243 -0.02873297 -0.022854056 0.020297859 -0.04067926 -0.0022229634
-0.05236048 -0.032386117 -0.08405852 -0.05393848 -0.004194878 0.06912098 -0.06815736 0.0291384
-0.048809145 0.009493248 -0.037769623 -0.06738375 -0.029584982 0.045701567 -0.07920286 -0.004896454
00000000: e008 c2bd aaa7 fb3c 2548 8ebc 6dfa 083c
00000010: 6f6e e4bb 1ef0 9bbd a4a0 fabb c320 98bd
00000020: 6162 3ebd 0250 c3bd 8b1d 73bc 56bc 12bc
00000030: 144f bbbd 0bd8 343d d75a 48bd 403e 81bd
00000040: ae32 5b3d d66c 5e3d f4ee b0bd 0a35 e73b
00000050: 037f 833d 9dbb 303d 8bf9 de3c 7be0 6abd
00000060: 1190 45bd eeb6 8ebc 69f0 65bc ecfc bcbd
00000070: 82ad b03c 9184 e2bd ef48 72bb 8bc6 cdbd
00000080: 1786 85bd e9e0 de38 d7e4 e9bd 3e4c debd
00000090: a62c b8bd 3572 84bd edb1 e9bc 056c f0bd
000000a0: 1cda 90bd 1645 d93a c6cc 98bd f2d1 3fbd
000000b0: e2c5 49bd 1b1e 85bd 0af0 a2bd 4b83 dabc
000000c0: 0cf4 0fbd 35fe 26be 2eb4 113d cb34 a83c
000000d0: 6e37 793c d2c0 293c a12e 1c3d f8f5 37ba
000000e0: ce5b 68bd 9702 d5bd e08a 9dbd 6952 adbc
000000f0: 32b3 123d 334b ba3c 201c 55bc 7992 f2bc
00000100: 9228 323c c264 9abd 74d8 73bd bc07 243d
00000110: 1d62 86bb ab7f a2bd 8b84 4ebd c68b 42bd
00000120: 391d b23b f72a 353d 60ea 363d b95d b43c
00000130: 8ab2 87bc 770b f63c 7c46 bd3c 9376 8dbd
00000140: b144 4fbc 6238 47bd 58b0 a53d 80b0 debc
00000150: a51e 5abd bc0e f23b 2248 663d 26d8 8f3d
00000160: 8e19 3ebc ac1c a2bd 62ab ed3c 5cf8 8cbc
00000170: cb1e 26bd 3ae3 163d efb2 dabc 37f7 b1bc
00000180: 0500 853c f064 e33b b4dc 9fbd d8b1 703d
00000190: f41f 1abe 4135 f6bd f308 04bd 03cd a9bd
000001a0: 4b3b 73bd 9ed3 16be 91e1 2abd 8687 dfbd
000001b0: 9aed b7bd 24f3 4dbd bb92 eabd 4625 38bd
000001c0: 7623 25be 68ca 00bd a947 88bd fb3d adbd
000001d0: fd3f ddbd 16f6 1dbe b44a 10bd e3cc 05bd
000001e0: 1da7 eabd 8b09 2bbd 78fb 61bc bb03 a2bd
000001f0: 2e5b c3bd 82d2 003c da41 b6bc 3262 c63b
00000200: b621 42bd ef51 7e3d e817 d5bd e341 693d
00000210: 5b99 06bd 6c8a 22bd d1e3 0abd e12d 6a3d
00000220: 1552 8a3d eb99 7c3c a40d 9dbd be78 cbbc
00000230: 56be 203c e8c8 2ebc dc44 78bd c01e 6b3d
00000240: 8e7e 843d cc39 023d febd 18bd eae8 84bd
00000250: 5dc2 b3bc 6281 9abd f859 a43b d52c 013d
00000260: c69e 1bbc daf0 28bd a90c 753d b4e8 aabd
00000270: 4dce 373d 63a6 53bd 6a6c 01bd d477 28bc
00000280: 02ef 6ebb 6f20 93bd 45ed 243d 5419 8bbc
00000290: bc90 57bc 61a8 8fbc 6e9b 46bc fcba ac3c
000002a0: 05f6 2a3c 8f02 b9bd 5d62 ebba d5e5 78bd
000002b0: f670 713c 281a 123d 1b04 5e3d b085 3cbd
000002c0: 6715 90bd 6d42 9a3b e326 97bd 879c 94bd
000002d0: 4e67 d9bd c02b 123d 229d 83bd 7f31 78bc
000002e0: 239c 3dbd a635 4abd 8f59 b7bd 3c99 6b3d
000002f0: e179 9bbd f0ac 51bc 13c6 fd3c 9785 65bd
00000300: 0351 1fbd 0c84 99bd 0b9d adbd b47c 9cbd
00000310: c5cb 16bd 5a35 133c f641 85bd daa9 a5bc
00000320: 408e da3c 9c61 07bd 8a09 44bd b2bd a13c
00000330: 6192 873d 9557 6e3d b100 7abd 840f 273d
00000340: 18e4 503c 2714 a2bd 583c 8b3c 5195 4d3d
00000350: e3d5 61bd 8d05 ecbc e31d 8a3d 0bbe 863d
00000360: c0bf fabc 0d41 033d b2dd aabc 9299 e2bc
00000370: bef7 9ebc 1023 85bb 41ea 5e3c d957 043c
00000380: ac14 97bd bd26 193d 7dba 1c3d fcde 97bd
00000390: 071e d3bc 19a4 fa3c 09e1 b53b df0a 713d
000003a0: fe25 813c 6b7f 933d dd19 7dbd 6861 ebbc
000003b0: 6e38 bbbc b247 a63c 4c9f 26bd 23af 11bb
000003c0: f177 56bd 4ea7 04bd e026 acbd 98ee 5cbd
000003d0: 3075 89bb 4d8f 8d3d 1696 8bbd a7b3 ee3c
000003e0: 19ec 47bd 9189 1b3c 52b4 1abd 7e00 8abd
000003f0: 345c f2bc 9131 3b3d 1c35 a2bd 6f72 a0bb

conv2.bias f4 [16]
-0.21562813 -0.08699787 -0.102967046 -0.15183115 -0.049971987 -0.09373898 -0.09445157 -0.09452225
-0.05106526 -0.08173588 -0.11120457 -0.052646916 -0.1799739 -0.08433789 -0.26280618 -0.21260588
00000000: 9fcd 5cbe f02b b2bd 63e0 d2bd a079 1bbe
00000010: 6daf 4cbd 39fa bfbd d36f c1bd e294 c1bd
00000020: ce29 51bd 2465 a7bd 39bf e3bd 4ba4 57bd
00000030: 144b 38be 58b9 acbd 888e 86be 5bb5 59be

fc1.weight f4 [120, 400]
0.010709664 -0.019322297 0.0035219323 0.0035249186 -0.04072196 0.003489883 -0.019005464 -0.036935724
-0.049781796 -0.013995319 -0.0039759073 -0.060025387 0.00031460996 0.026687179 -0.009331283 -0.0298944
-0.043619093 -0.006907281 -0.056093227 0.04893077 0.008485737 0.0028086086 -0.029270925 -0.009969227
0.03429401 -0.042332485 0.02423405 -0.0059194495 0.020621661 -0.037981804 -0.04485572 -0.013203098
-0.0356592 -0.030914614 -0.036855128 -0.027743395 -0.042737722 0.043455068 0.0077547976 -0.0053515024
0.017770888 -0.025390333 0.032708082 0.049039144 -0.031468432 0.0065454575 -0.010295373 -0.03631546
-0.0075258347 -0.013823131 0.03652634 -0.020275887 0.014761102 0.008926073 -0.021481115 -0.003226009
0.031186953 0.03380159 0.028918263 0.054189406 0.0419443 0.044144154 -0.023221618 0.044914905
-0.0058199083 0.022856917 -0.0006745192 0.04739806 0.02508181 -0.0019633083 0.004799655 0.01482904
0.03126801 -0.027306423 -0.038156997 0.01834594 -0.027320463 -0.060754467 -0.010558189 -0.056501307
-0.08966457 -0.05259686 -0.04576409 -0.12516835 -0.10719122 -0.07691651 -0.11530157 -0.07568367
-0.03044826 -0.033239815 -0.07750844 -0.04328579 -0.021482531 0.019786837 -0.03307974 -0.044585906
-0.04283344 0.034625422 -0.03298996 -0.047388375 0.0011800792 -0.00647783 0.009853343 0.014975813
-0.02336803 -0.022350794 0.013958078 0.0037253746 -0.024126861 -0.028589731 0.02679693 0.030642333
-0.046433754 0.033357415 0.043969795 -0.0041331416 0.009577875 0.0013559348 0.0053188396 0.032509938
0.047582854 -0.032961603 -0.01363933 0.045301773 -0.024009047 -0.027232898 -0.0026433272 -0.05762303
-0.013615376 0.06876397 0.051589478 -0.04133518 -0.06503202 0.015514337 0.07480144 -0.018444892
-0.0389339 -0.1324139 -0.030886987 0.059279382 0.0038176074 0.010098569 0.021005854 0.0042273444
0.0060959402 -0.019307677 -0.06559038 -0.052765965 -0.05070778 0.038903415 0.036114346 -0.017865874
0.03135567 0.047690775 0.016605388 0.004976961 0.03709787 0.044137653 -0.023233019 -0.049298145
-0.047175363 0.00058214425 -0.019398618 -0.032012787 0.04734397 0.051726174 0.055508904 -0.036228057
-0.025369737 -0.026651748 -0.027818637 -0.019717485 -0.034127917 0.015090206 -0.041123305 0.034601215
0.03384352 -0.026590008 0.0076537207 -0.014735462 -0.012220717 -0.021455947 0.011334728 0.017977826
-0.0071969433 0.019830892 0.0204351 0.0015892811 -0.048938785 0.002539486 -0.031097597 -0.022793533
0.016665047 -0.0332483 0.0118760755 -0.04753954 0.022450976 -0.060381148 -0.039501145 -0.058553737
-0.06992105 -0.016467532 -0.0127593335 -0.017125892 -0.017076453 -0.03739818 -0.061191652 0.026109744
-0.041777186 0.024647 -0.03228043 -0.07029664 -0.023161402 0.012989073 -0.044146217 -0.027922371
-0.07344017 -0.04870587 0.022609333 0.02773302 -0.0465075 0.015717844 -0.00883385 -0.01934984
-0.052744787 0.0016765672 -0.031574953 -0.048666276 0.04511673 -0.006021649 -0.006032748 -0.011658641
-0.0027546159 -0.03393283 -0.004266339 0.03205149 0.046221554 0.01654248 0.031172292 -0.0529024
0.050233696 -0.008767749 -0.04754968 0.013376035 -0.007367508 -0.0433299 0.026044553 0.026061513
0.041180912 0.036395416 -0.019888557 0.0062748403 -0.009725263 0.022516316 0.0058267745 0.010363951
00000000: 9677 2f3c cb49 9ebc 38d0 663b 5202 673b
00000010: 12cc 26bd 85b6 643b 59b1 9bbc ea49 17bd
00000020: ffe7 4bbd 9f4c 65bc 5448 82bb 2edd 75bd
00000030: 3cf2 a439 129f da3c 3de2 18bc 1ae5 f4bc
00000040: efa9 32bd 7956 e2bb 03c2 65bd a26b 483d
00000050: c307 0b3c a210 383b 94c9 efbc f855 23bc
00000060: e077 0c3d d464 2dbd 7d86 c63c f1f7 c1bb
00000070: c2ee a83c cf92 1bbd a2ba 37bd cf51 58bc
00000080: 620f 12bd a540 fdbc 67f5 16bd 1e46 e3bc
00000090: c00d 2fbd f1fd 313d f51b fe3b a85b afbb
000000a0: 4194 913c 63ff cfbc e9f8 053d 45dd 483d
000000b0: 0be5 00bd 477b d63b edad 28bc 85bf 14bd
000000c0: 479b f6bb 6a7a 62bc a59c 153d 9e19 a6bc
000000d0: 8dd8 713c aa3e 123c 2af9 afbc 736b 53bb
000000e0: c87b ff3c 8973 0a3d fee5 ec3c b6f5 5d3d
000000f0: c9cd 2b3d 80d0 343d 433b bebc b1f8 373d
00000100: eeb4 bebb 6e3e bb3c 38d2 30ba 7824 423d
00000110: 5e78 cd3c d9aa 00bb 6d46 9d3b 80f5 723c
00000120: e312 003d b8b1 dfbc 834a 1cbd 3a4a 963c
00000130: 2acf dfbc add9 78bd 41fc 2cbc ea6d 67bd
00000140: 0fa2 b7bd ce6f 57bd 2073 3bbd 222c 00be
00000150: 1287 dbbd 6786 9dbd 3b23 ecbd 0a00 9bbd
00000160: a16e f9bc 7926 08bd bfbc 9ebd 714c 31bd
00000170: 22fc afbc 0118 a23c 9f7e 07bd b69f 36bd
00000180: 1e72 2fbd 63d3 0d3d 7b20 07bd 501a 42bd
00000190: e3ac 9a3a fa43 d4bb ea6f 213c 1d5d 753c
000001a0: 506e bfbc 0319 b7bc 6cb0 643c 6a25 743b
000001b0: b2a5 c5bc 0335 eabc 3c85 db3c a105 fb3c
000001c0: 5231 3ebd c9a1 083d ac19 343d 4e6f 87bb
000001d0: 85ec 1c3c 9fb9 b13a a949 ae3b 2429 053d
000001e0: 3de6 423d bf02 07bd 7f77 5fbc 5a8e 393d
000001f0: 9fae c4bc 8717 dfbc ac3b 2dbb 2006 6cbd
00000200: 0713 5fbc 20d4 8c3d 7d4f 533d 144f 29bd
00000210: 822f 85bd d92f 7e3c 7f31 993d be19 97bc
00000220: 2779 1fbd 8297 07be b506 fdbc f0ce 723d
00000230: d330 7a3b 7874 253c 7814 ac3c 8985 8a3b
00000240: 74c0 c73b 222b 9ebc 4054 86bd 2021 58bd
00000250: f6b2 4fbd 3059 1f3d a3ec 133d 745b 92bc
00000260: ce6e 003d 6757 433d 0608 883c c615 a33b
00000270: f0f3 173d afc9 343d 2c53 bebc daec 49bd
00000280: f43a 41bd 0a9b 183a dae9 9ebc d71f 03bd
00000290: c0eb 413d d3de 533d 4e5d 633d df63 14bd
000002a0: 32d4 cfbc c454 dabc e9e3 e3bc 9086 a1bc
000002b0: b7c9 0bbd e93c 773c e970 28bd 01ba 0d3d
000002c0: 819f 0a3d 4ad3 d9bc 10cc fa3b 026d 71bc
000002d0: 6739 48bc 62c4 afbc 4cb5 393c 3c46 933c
000002e0: 56d4 ebbb 6574 a23c 8367 a73c 6d4f d03a
000002f0: 0974 48bd 816d 263b 63c0 febc 81b9 babc
00000300: 2385 883c 5f2f 08bd df93 423c d2b8 42bd
00000310: 1ceb b73c 3952 77bd f4cb 21bd 0bd6 6fbd
00000320: c432 8fbd ebe6 86bc 860c 51bc 994b 8cbc
00000330: ebe3 8bbc d62e 19bd 19a4 7abd 1ae4 d53c
00000340: 8e1e 2bbd 81e8 c93c 7c38 04bd aff7 8fbd
00000350: fbbc bdbc 1fd0 543c aad2 34bd 75bd e4bc
00000360: cd67 96bd ce7f 47bd 3537 b93c 5c30 e33c
00000370: a67e 3ebd b5c2 803c dabb 10bc 8e83 9ebc
00000380: eb0a 58bd 43c0 db3a bd54 01bd 4a56 47bd
00000390: 52cc 383d 4151 c5bb 5cae c5bb e203 3fbc
000003a0: c986 34bb 27fd 0abd a5cc 8bbb 6c48 033d
000003b0: d052 3d3d 1884 873c 095d ff3c 30b0 58bd
000003c0: d9c1 4d3d 9ba6 0fbc 74c3 42bd 2827 5b3c
000003d0: 236b f1bb b17a 31bd 635b d53c f47e d53c
000003e0: 51ad 283d 5c13 153d 54ed a2bc 2d9d cd3b
000003f0: b656 1fbc 2374 b83c 87ee be3b 90cd 293c

fc1.bias f4 [120]
-0.14227243 -0.045947634 -0.056393065 0.11983752 -0.1825579 -0.107200846 -0.22539067 0.22867294
-0.04713359 0.03825982 -0.058153667 -0.036926053 0.01226885 -0.05406029 0.14007996 -0.11343301
-0.04476646 -0.06550875 -0.02603768 -0.043684736 -0.07268469 -0.015198605 -0.027656173 -0.05257375
-0.10639122 -0.0446036 0.008639004 -0.03339803 -0.06669667 -0.019724254 -0.08327377 -0.15805377
-0.056698754 -0.11244051 -0.053349163 -0.06952331 -0.062485863 -0.052824225 -0.06915269 -0.03756909
-0.08319484 -0.16886228 -0.040730905 -0.090272486 -0.09099279 -0.033511315 -0.045119304 -0.053362895
0.12344965 -0.026440864 -0.048745286 -0.03155954 -0.07950454 -0.100713536 -0.06350558 -0.12564005
-0.0686342 -0.06065795 -0.06856146 -0.058938682 -0.11744064 -0.05699146 -0.029240526 0.11487926
-0.015115552 -0.09372764 -0.016963817 -0.2107236 -0.02495724 -0.078533106 -0.09272965 -0.019142212
-0.060511474 -0.08498337 0.11523465 0.14309075 -0.055736955 -0.08642425 -0.076745264 0.06632214
-0.067063615 0.10761474 -0.031035688 -0.055744622 -0.041967947 0.14954378 -0.12967427 -0.051613197
-0.043206107 -0.027365655 0.09860839 0.08899694 -0.161423 -0.14621542 0.073956996 -0.05026563
-0.022982545 -0.10564107 0.07937628 -0.14548007 -0.12223132 -0.0387405 0.027331429 -0.021003047
-0.06932608 -0.06016192 -0.10362445 0.15462112 -0.109635085 -0.026837189 -0.005523466 -0.07893392
-0.07906548 -0.08048744 0.044818036 -0.070661195 -0.04956264 -0.022033088 -0.011123953 -0.046022117
00000000: ddaf 11be 9633 3cbd 6afc 66bd 606d f53d
00000010: 75f0 3abe 1e8c dbbd d0cc 66be 3d29 6a3e
00000020: 270f 41bd 54b6 1c3d 8a32 6ebd c63f 17bd
00000030: 4903 493c 536e 5dbd 1f71 0f3e 914f e8bd
00000040: 095d 37bd 7429 86bd f94c d5bc c4ee 32bd
00000050: b6db 94bd 9203 79bc 338f e2bc 9357 57bd
00000060: a4e3 d9bd 44b2 36bd 9c8a 0d3c 5fcc 08bd
00000070: 4498 88bd c294 a1bc 708b aabd d9d8 21be
00000080: f43c 68bd 3647 e6bd a784 5abd 3d62 8ebd
00000090: 2df1 7fbd 375e 58bd ed9f 8dbd 0ce2 19bd
000000a0: 0e62 aabd 3cea 2cbe 73d5 26bd c8e0 b8bd
000000b0: 6e5a babd 2943 09bd 05cf 38bd 0d93 5abd
000000c0: 2cd3 fc3d 839a d8bc 23a9 47bd 9444 01bd
000000d0: 47d3 a2bd e642 cebd 370f 82bd c9a7 00be
000000e0: 1690 8cbd 7874 78bd f369 8cbd b069 71bd
000000f0: b884 f0bd e16f 69bd d489 efbc d145 eb3d
00000100: 38a7 77bc 47f4 bfbd b4f7 8abc edc7 57be
00000110: 2073 ccbc f7d5 a0bd 0be9 bdbd 21d0 9cbc
00000120: e1da 77bd c30b aebd 2500 ec3d 6286 123e
00000130: 6f4c 64bd 32ff b0bd 9f2c 9dbd e7d3 873d
00000140: a658 89bd 1e65 dc3d 8e3e febc 7954 64bd
00000150: 95e6 2bbd 0122 193e 55c9 04be 5c68 53bd
00000160: e3f8 30bd f02d e0bc 32f3 c93d 0744 b63d
00000170: 124c 25be 7fb9 15be c476 973d 55e3 4dbd
00000180: e445 bcbc 585a d8bd 0890 a23d baf8 14be
00000190: 6a54 fabd 5cae 1ebd 29e6 df3c 950e acbc
000001a0: d5fa 8dbd 586c 76bd 0e39 d4bd 0055 1e3e
000001b0: 5c88 e0bd aad9 dbbc 31fe b4bb 1ba8 a1bd
000001c0: 15ed a1bd 99d6 a4bd 1e93 373d d1b6 90bd
000001d0: 3202 4bbd bc7e b4bc 3e41 36bc b081 3cbd

fc2.weight f4 [84, 120]
-0.019073058 -0.09124279 -0.020189833 -0.0027360264 0.037381224 0.23454924 0.1762754 0.009308128
0.014352651 -0.056998387 -0.032510906 -0.04047462 -0.14599551 -0.050456 -0.11031924 0.009825487
-0.02082973 0.02148971 0.035827342 -0.091855265 -0.01566923 0.2578992 -0.16646847 -0.12292173
-0.18686841 0.003600215 -0.07781675 -0.007950331 -0.045053426 -0.09979808 -0.024491565 0.039166734
0.026901137 -0.08656136 0.0020663613 0.14626959 0.087998405 0.0053770784 -0.0962273 -0.11316928
-0.087166175 -0.07424888 -0.0943276 -0.11520912 0.09008077 -0.13382383 0.07076734 0.09407634
-0.016959641 -0.06919627 -0.02448906 0.13916382 -0.13803945 -0.03594584 -0.090381116 -0.12929991
-0.046233147 -0.07355378 -0.049728107 -0.019584747 -0.011628917 -0.23287152 -0.08351072 0.2469872
-0.1548272 -0.20563918 -0.046653505 0.3690215 0.0623414 0.03339561 -0.08861571 -0.13997996
-0.032141224 -0.012394546 -0.11119244 0.037553664 0.045177422 0.26034102 -0.008486831 0.027735187
-0.07226231 -0.17603585 0.07005459 -0.15513584 -0.028701695 0.3798424 0.03914127 -0.06881952
-0.081381485 0.033274595 0.014719901 -0.17425998 -0.06234257 0.22262217 -0.09533157 0.0109994225
-0.07037965 -0.032189637 -0.1608923 0.5188912 -0.03352977 -0.10886582 -0.09983441 -0.031958204
0.020534875 -0.09505701 0.08802957 -0.064297214 -0.123991564 -0.103360124 -0.0217901 -0.037961658
-0.033492036 -0.098482795 0.018672816 0.03137062 -0.07826978 -0.12043596 -0.085672095 0.024258146
0.088525645 -0.07202083 -0.080363736 0.0504646 -0.054433953 0.03486154 -0.060286842 -0.021788493
0.06406437 0.02349174 -0.0854852 -0.05581211 0.0062564327 0.03125651 -0.04856404 0.080523
0.06828809 -0.09525312 0.073541164 -0.03138063 -0.04784925 0.06870652 -0.05752711 0.050665554
-0.00879447 0.046584174 0.022600027 -0.01955437 -0.050614305 -0.04441443 -0.031971432 0.023555376
0.026393304 -0.080495626 -0.08908715 -0.015003875 0.04126976 -0.02503953 -0.01210997 -0.03836075
0.06289587 -0.011177708 -0.07181601 -0.016506141 -0.07137821 -0.04557746 0.028284514 0.047005903
-0.14908515 0.03910053 0.053243645 -0.06697114 -0.068076804 0.05391681 0.018160062 -0.14094138
-0.041189037 -0.06442098 -0.0017383081 -0.0055007124 -0.012134028 0.07419135 0.06707514 -0.0752279
-0.06357999 -0.016089877 -0.063866414 -0.09892109 0.04779668 0.049379367 -0.08601942 0.055551227
0.06837927 -0.025187848 -0.029997975 -0.014405371 0.0107014915 -0.08647937 -0.01305222 0.049252886
-0.039754324 -0.1140717 0.048837125 -0.061073013 -0.016217394 -0.06224158 0.05917475 -0.034918424
0.0031794196 -0.08423637 0.042703893 -0.022292797 -0.036772102 0.025676088 -0.106193066 -0.031921174
0.02004381 0.040995404 -0.04942864 -0.0045958804 0.013777645 -0.053981494 -0.013131602 0.012909564
0.03314179 0.044986155 -0.04186395 -0.037007038 -0.05495869 -0.07194337 -0.1000787 -0.0370547
-0.11051709 -0.06985124 -0.03590623 0.00876703 0.02333366 0.04842941 -0.04754749 0.021321405
0.001999576 -0.04422985 -0.005370735 0.019263254 -0.21860905 -0.30400082 -0.39380017 -0.33071607
0.05039308 -0.06029452 0.100496165 0.04305776 0.059247416 -0.023081988 0.01599085 -0.09812522
00000000: 1a3f 9cbc 80dd babd 2665 a5bc e84e 33bb
00000010: 0e1d 193d ad2d 703e 8a81 343e 1e81 183c
00000020: 6227 6b3c 2477 69bd 282a 05bd b7c8 25bd
00000030: d97f 15be f3aa 4ebd 0eef e1bd 14fb 203c
00000040: 1ca3 aabc 300b b03c b1bf 123d 9d1e bcbd
00000050: c25c 80bc 5d0b 843e b676 2abe 63be fbbd
00000060: 6f5a 3fbe 96f1 6b3b 635e 9fbd 1b42 02bc
00000070: f189 38bd f062 ccbd 89a2 c8bc 4c6d 203d
00000080: c65f dc3c 1547 b1bd ca6b 073b b2c7 153e
00000090: 8238 b43d 3432 b03b d212 c5bd 4cc5 e7bd
000000a0: 2e84 b2bd cc0f 98bd d42e c1bd c2f2 ebbd
000000b0: 447c b83d 1d09 09be 78ee 903d 19ab c03d
000000c0: f2ee 8abc c6b6 8dbd 489d c8bc f680 0e3e
000000d0: 375a 0dbe f23b 13bd bc19 b9bd 3267 04be
000000e0: f85e 3dbd 5da3 96bd b3af 4bbd 3170 a0bc
000000f0: 3787 3ebc df75 6ebe ab07 abbd 36ea 7c3e
00000100: 068b 1ebe 1493 52be bf17 3fbd 63f0 bc3e
00000110: b259 7f3d d6c9 083d 277c b5bd e856 0fbe
00000120: 84a6 03bd 7e12 4bbc ddb8 e3bd dfd1 193d
00000130: f60b 393d 6b4b 853e 590c 0bbc e734 e33c
00000140: 43fe 93bd be42 34be c878 8f3d eedb 1ebe
00000150: d11f ebbc b47a c23e 9952 203d 40f1 8cbd
00000160: 56ab a6bd f14a 083d bd2b 713c 3571 32be
00000170: ec5a 7fbd 11f7 633e 333d c3bd ec36 343c
00000180: 3523 90bd 48d9 03bd f3c0 24be 0ed6 043f
00000190: 8356 09bd 0bf5 debd fc75 ccbd 9be6 02bd
000001a0: c138 a83c 40ad c2bd d948 b43d 42ae 83bd
000001b0: 4aef fdbd 79ae d3bd 2781 b2bc af7d 1bbd
000001c0: f22e 09bd 59b1 c9bd bcf7 983c 7b7e 003d
000001d0: e84b a0bd 21a7 f6bd da74 afbd 05b9 c63c
000001e0: ef4c b53d a87f 93bd be95 a4bd f8b3 4e3d
000001f0: 23f6 5ebd f9ca 0e3d 56ef 76bd c87d b2bc
00000200: 2e34 833d c071 c03c dd12 afbd 3d9b 64bd
00000210: c302 cd3b d406 003d 16eb 46bd 3ee9 a43d
00000220: a0da 8b3d 1114 c3bd c09c 963d fa88 00bd
00000230: 93fd 43bd 01b6 8c3d 8ca1 6bbd af86 4f3d
00000240: ae16 10bc 0ccf 3e3d b123 b93c 7c30 a0bc
00000250: f250 4fbd e8eb 35bd 7af4 02bd 34f7 c03c
00000260: c536 d83c e4da a4bd 5373 b6bd d0d2 75bc
00000270: 7b0a 293d b31f cdbc e568 46bc 2920 1dbd
00000280: 8dcf 803d b522 37bc 4614 93bd e337 87bc
00000290: bd2e 92bd 6eaf 3abd edb4 e73c 4389 403d
000002a0: c7a9 18be e127 203d 0216 5a3d 2a28 89bd
000002b0: da6b 8bbd dfd7 5c3d 69c4 943c f052 10be
000002c0: d6b5 28bd 26ef 83bd f1d7 e3ba 523f b4bb
000002d0: cdcd 46bc a2f1 973d b15e 893d 1611 9abd
000002e0: 3a36 82bd ebce 83bc 65cc 82bd 2497 cabd
000002f0: 74c6 433d 0542 4a3d f32a b0bd af89 633d
00000300: 6e0a 8c3d bf56 cebc 50be f5bc 8104 6cbc
00000310: 4f55 2f3c 191c b1bd fbd8 55bc 65bd 493d
00000320: 6ed5 22bd 6c9e e9bd 7009 483d b227 7abd
00000330: 57da 84bc 07f1 7ebd 3961 723d 9f06 0fbd
00000340: cf5d 503b 1e84 acbd 47ea 2e3d 629f b6bc
00000350: 589e 16bd a956 d23c c07b d9bd c7bf 02bd
00000360: eb32 a43c ccea 273d b075 4abd 0a99 96bb
00000370: a2bb 613c b31b 5dbd ee25 57bc a382 533c
00000380: b0bf 073d 6743 383d 8979 2bbd b194 17bd
00000390: 5d1c 61bd 0c57 93bd 10f6 ccbd abc6 17bd
000003a0: c956 e2bd 2b0e 8fbd 6912 13bd 97a3 0f3c
000003b0: 3b26 bf3c eb5d 463d 28c1 42bd 3aaa ae3c
000003c0: 520b 033b 5c2a 35bd fefc afbb f9cd 9d3c
000003d0: 0ddb 5fbe ffa5 9bbe 2da0 c9be 9e53 a9be
000003e0: f968 4e3d 63f7 76bd efd0 cd3d 555d 303d
000003f0: 6bad 723d 7016 bdbc 3eff 823c e0f5 c8bd

fc2.bias f4 [84]
-0.58840245 -0.15424266 -0.0010507755 -0.16406067 -0.063328706 -0.057203423 -0.15411276 -0.13300277
-0.097128816 -0.3379677 -0.3089667 -0.40269607 -0.19560622 -0.15681705 -0.039667692 -0.18397105
-0.109069094 -0.11699572 -0.10116778 -0.1254386 -0.10134429 -0.20061687 -0.21511398 -0.16023357
-0.055745926 -0.16400988 -0.15836035 -0.13447346 -0.14020185 -0.083071135 -0.04104475 -0.10206251
-0.34770602 -0.20382515 -0.10880275 -0.077876545 -0.20972092 -0.12659292 -0.1396872 -0.17362466
-0.13821387 -0.18415274 -0.08866677 -0.18916701 -0.115274206 -0.12454664 -0.05613607 -0.07416537
-0.15534854 -0.25176167 -0.14638263 -0.14274824 -0.17388982 -0.1613431 -0.12164988 -0.38042402
-1.124866 -0.2292013 -0.050650824 -0.34286645 -0.4414143 -0.24349482 -0.0867875 -0.029407457
-0.11534424 -0.8542285 -0.116406284 -0.14787851 -0.22972879 -0.17464982 -0.11140865 -0.14966989
-0.04906282 -0.11922693 -0.17321602 -0.072859086 -0.10764469 -0.13443509 -0.06349527 -0.087395675
-0.10161266 -0.098709986 -0.20007083 -0.031645797
00000000: 8ba1 16bf caf1 1dbe 2dba 89ba 85ff 27be
00000010: 7bb2 81bd 234e 6abd bccf 1dbe e131 08be
00000020: 79eb c6bd 1a0a adbe e230 9ebe 2e2e cebe
00000030: ff4c 48be a694 20be 977a 22bd e862 3cbe
00000040: 9e5f dfbd 749b efbd 0e31 cfbd fa72 00be
00000050: 988d cfbd 826e 4dbe d746 5cbe 4514 24be
00000060: d755 64bd 35f2 27be 3729 22be 69b3 09be
00000070: 1391 0fbe 3321 aabd 8a1e 28bd 2606 d1bd
00000080: 8606 b2be 8ab7 50be fad3 debd bd7d 9fbd
00000090: 15c1 56be 93a1 01be 290a 0fbe aaca 31be
000000a0: f087 0dbe 8992 3cbe ec96 b5bd ffb4 41be
000000b0: e214 ecbd 4f12 ffbd f0ee 65bd 03e4 97bd
000000c0: b013 1fbe e8e6 80be 54e5 15be 982c 12be
000000d0: 2c10 32be 2037 25be 9323 f9bd f0c6 c2be
000000e0: 9cfb 8fbf bfb3 6abe 3d77 4fbd 318c afbe
000000f0: 0e01 e2be b556 79be a5bd b1bd e8e7 f0bc
00000100: 9a39 ecbd b8ae 5abf 6b66 eebd 776d 17be
00000110: 063e 6bbe 67d7 32be 382a e4bd 1043 19be
00000120: 18f6 48bd 402d f4bd 8a5f 31be 2537 95bd
00000130: d274 dcbd 5aa9 09be cf09 82bd 81fc b2bd
00000140: 4c1a d0bd 7628 cabd 5edf 4cbe 069f 01bd

fc3.weight f4 [10, 84]
0.42312717 0.26779175 -0.38869262 -0.37958774 -0.021157231 -0.10628962 -0.02531818 -0.046054296
0.0107933525 0.24626458 0.05792879 -0.2956704 0.0017981376 0.09852896 -0.030366346 -0.049981084
-0.016912233 0.25235707 -0.04794617 0.081854366 -0.03213964 0.26707295 0.3322751 -0.001613787
-0.0003013578 0.06338068 -0.023841804 -0.13965712 -0.29183677 0.019847883 -0.064202726 -0.031474937
0.08862474 0.19120833 0.037843652 0.090690486 0.13103715 -0.1377934 0.04097394 -0.0719145
0.026254015 0.015681965 0.004770657 -0.041503876 -0.02236573 -0.054513935 -0.0029850332 -0.013584213
0.016917493 0.14825499 -0.04137441 0.038208652 0.090103336 -0.040865093 -0.09237298 0.16796398
-0.3823653 -0.0036805156 0.010992169 0.5866041 -0.31938416 0.025630806 -0.1311504 -0.09667559
0.027725333 -0.3593967 -0.044936616 0.05193244 -0.025500273 -0.044625487 0.49303737 0.5571822
-0.07160771 -0.032448016 -0.03484942 -0.088345915 0.024896836 0.34024763 0.027899798 0.03813089
0.030203557 0.122592494 -0.005472551 -0.08915438 0.025438402 0.047622822 0.43547547 0.2051146
0.069790855 -0.046552856 -0.049892597 -0.07627539 0.05610935 0.33939806 -0.13188635 -0.17567207
0.031865906 0.05464904 0.02841306 -0.01449582 0.005039597 0.080797516 -0.09545687 0.054864116
-0.05366723 -0.16594066 -0.0059729856 0.027242677 0.038563438 -0.026697954 0.043260142 0.0016927442
0.33014426 0.14224108 0.0992331 -0.06876311 -0.09266708 0.054373484 -0.04659631 0.023011519
0.17529032 -0.045275982 -0.029848482 -0.09786796 0.03059321 0.021977445 -0.05071706 -0.04064577
0.022348858 0.08285148 0.027273118 -0.03496928 -0.08956449 0.07781166 0.08289857 0.06528441
0.08829935 0.02612923 -0.01629243 -0.17865185 0.35832778 -0.10183401 -0.016604217 -0.060164295
-0.18041258 0.028889962 -0.010973518 -0.016571848 0.056623645 0.147356 -0.03763399 -0.079162225
0.0025717174 0.052875318 -0.06368393 0.05860928 -0.08503184 -0.018453876 -0.055888183 0.09845782
0.09142863 0.015775416 -0.007943164 -0.057188388 0.090730965 0.05175249 0.09173292 -0.07111924
0.23467048 0.0859732 0.7473208 0.57448334 -0.047997657 -0.030293187 -0.0809499 0.06917123
-0.018483484 0.18368396 0.091136076 0.39885724 0.031196713 0.036309984 0.08887581 0.06067854
-0.048425566 -0.03020022 0.026178464 -0.010881788 0.06326098 0.08393209 -0.13072532 -0.044697247
-0.006288157 -0.06524502 0.0677787 -0.056946788 0.38784486 0.20200859 -0.027118796 0.116631255
0.15975201 -0.05753945 0.033667617 -0.030189985 0.008535416 -0.11244577 0.06179181 0.018939156
-0.071047544 0.062239658 0.014108633 0.20132689 -0.0062231356 0.019208623 0.05406525 -0.04561741
0.06648949 -0.10669036 0.10670373 0.015123347 -0.073262975 0.02178871 -0.014932129 0.35233626
0.36441055 0.07066168 -0.08378601 -0.0398379 0.3565102 -0.034934897 0.052260894 0.01432466
0.0960504 0.36423188 0.0936709 -0.06735551 0.062505424 0.05699175 0.089518555 -0.14185338
0.017426752 -0.05217587 0.0029039762 0.16326924 0.10472558 -0.19796817 0.022905508 0.07814014
0.077242225 0.00056330266 0.045955226 0.0948453 -0.2627229 0.18427247 -0.13709906 -0.22111262
00000000: 20a4 d83e 001c 893e b802 c7be 5359 c2be
00000010: ee51 adbc 5fae d9bd 1268 cfbc 6ea3 3cbd
00000020: 9ad6 303c c82c 7c3e bd46 6d3d 1c62 97be
00000030: 7caf eb3a 8dc9 c93d d8c2 f8bc f7b8 4cbd
00000040: 868b 8abc f234 813e 3463 44bd 43a3 a73d
00000050: dba4 03bd c9bd 883e f61f aa3e b585 d3ba
00000060: 8fff 9db9 bbcd 813d e34f c3bc 4702 0fbe
00000070: a16b 95be 0798 a23c b87c 83bd ddeb 00bd
00000080: e380 b53d 1ecc 433e f201 1b3d efbb b93d
00000090: 9a2e 063e b719 0dbe 4ad4 273d e947 93bd
000000a0: a912 d73c 7777 803c 2c53 9c3b f8ff 29bd
000000b0: 5638 b7bc 014a 5fbd 8ca0 43bb 5290 5ebc
000000c0: 8e96 8a3c 28d0 173e 3778 29bd ad80 1c3d
000000d0: 1988 b83d 2862 27bd 0c2e bdbd c0fe 2b3e
000000e0: 62c5 c3be ce34 71bb 8018 343c b02b 163f
000000f0: 5286 a3be b2f7 d13c 4a4c 06be dafd c5bd
00000100: 3d20 e33c d802 b8be 750f 38bd 1cb7 543d
00000110: f3e5 d0bc 37c9 36bd 656f fc3e 7ea3 0e3f
00000120: 10a7 92bd 36e8 04bd 44be 0ebd b4ee b4bd
00000130: 73f4 cb3c f034 ae3e 1e8e e43c 232f 1c3d
00000140: 736d f73c c611 fb3d 1653 b3bb 9296 b6bd
00000150: 3264 d03c 2610 433d a4f6 de3e 9009 523e
00000160: 82ee 8e3d 35ae 3ebd 2e5c 4cbd 4636 9cbd
00000170: ebd2 653d 95c5 ad3e 370d 07be 61e3 33be
00000180: d385 023d acd7 5f3d 81c2 e83c e07f 6dbc
00000190: 3423 a53b 2b79 a53d e47e c3bd 32b9 603d
000001a0: 2bd2 5bbd 59ec 29be 09b9 c3bb 092c df3c
000001b0: b2f4 1d3d abb5 dabc 8c31 313d 12df dd3a
000001c0: ab08 a93e a5a7 113e b93a cb3d acd3 8cbd
000001d0: 3dc8 bdbd bbb6 5e3d c6db 3ebd a782 bc3c
000001e0: 4e7f 333e 4f73 39bd ce84 f4bc ff6e c8bd
000001f0: 9d9e fa3c 0b0a b43c b1bc 4fbd 2e7c 26bd
00000200: f414 b73c 09ae a93d e06b df3c f33b 0fbd
00000210: 966d b7bd b85b 9f3d bac6 a93d d5b3 853d
00000220: 4ad6 b43d f80c d63c b477 85bc 83f0 36be
00000230: bd76 b73e 598e d0bd 9105 88bc d66e 76bd
00000240: 13be 38be a4aa ec3c 45ca 33bc afc1 87bc
00000250: 32ee 673d 7ee4 163e 1926 1abd ce1f a2bd
00000260: 428a 283b ca93 583d b86c 82bd 4910 703d
00000270: 2c25 aebd 952c 97bc 02eb 64bd 41a4 c93d
00000280: ef3e bb3d 723b 813c 0b24 02bc 5f3e 6abd
00000290: 28d1 b93d 6bfa 533d 78de bb3d f7a6 91bd
000002a0: 754d 703e b812 b03d 6a50 3f3f 5711 133f
000002b0: 3199 44bd 6b29 f8bc 10c9 a5bd a5a9 8d3d
000002c0: ad6a 97bc a617 3c3e 8da5 ba3d 0437 cc3e
000002d0: 4090 ff3c c7b9 143d 8504 b63d 108a 783d
000002e0: e359 46bd 7466 f7bc 3874 d63c 8749 32bc
000002f0: f98e 813d 96e4 ab3d dcdc 05be 7614 37bd
00000300: e20c cebb 2e9f 85bd 8fcf 8a3d 0941 69bd
00000310: 9a93 c63e 57db 4e3e 3d28 debc 5edc ee3d
00000320: 0896 233e 7cae 6bbd 0ee7 093d fd50 f7bc
00000330: 21d8 0b3c f849 e6bd 6919 7d3d 4a26 9b3c
00000340: 6081 91bd 03ef 7e3d e527 673c a328 4e3e
00000350: 72eb cbbb 675b 9d3c 8673 5d3d 52d9 3abd
00000360: a42b 883d 7a80 dabd 7c87 da3d eac7 773c
00000370: e60a 96bd 3d7e b23c e3a5 74bc 6b65 b43e
00000380: 0594 ba3e 12b7 903d 0098 abbd 112d 23bd
00000390: 8188 b63e e517 0fbd 850f 563d fbb1 6a3c
000003a0: 12b6 c43d 9a7c ba3e 87d6 bf3d b0f1 89bd
000003b0: d802 803d 2e70 693d 8155 b73d 0342 11be
000003c0: 8cc2 8e3c 5db6 55bd a350 3e3b 0d30 273e
000003d0: 5d7a d63d 2bb8 4abe 55a4 bb3c f007 a03d
000003e0: 2c31 9e3d 9aaa 133a 8c3b 3c3d 413e c23d
000003f0: 9e83 86be ecb1 3c3e b263 0cbe 596b 62be

fc3.bias f4 [10]
-0.7733788 -0.6069631 0.15603279 -0.18325488 0.28221962 0.21592107 0.31465128 0.25833973
0.16273175 0.22243492
00000000: 27fc 45bf ef61 1bbf 0fc7 1f3e 2ba7 3bbe
00000010: 177f 903e 6a1a 5d3e f919 a13e 1b45 843e
00000020: 27a3 263e fbc5 633e
