pytorch/mnist/savedModels/2021_12_25-16:22:49.pth (torch, 704709 bytes, 10 tensors)

conv1.weight f4 [12, 1, 5, 5]
0	0x3d51db8f	0.051234778
1	0x3d9686d8	0.07349938
2	0xbe085b26	-0.1331602
3	0xbea82dec	-0.32847536
4	0xbe70bd3b	-0.23509686
5	0x3c1f2ee5	0.00971577
6	0x3e37cfc8	0.17950356
7	0xbe16536a	-0.14680257
8	0xbe8b0e84	-0.27159512
9	0xbed1b556	-0.4095866
10	0x3e2ec7bc	0.1706838
11	0x3eac9429	0.33706787
12	0x3e68a2cf	0.22718357
13	0x3e1160ed	0.1419713
14	0xbe6c11ab	-0.23053615
15	0xbc6caef6	-0.014446011
16	0x3ec35fd5	0.38159052
17	0x3ea0e338	0.31423354
18	0x3ed63b08	0.41841912
19	0x3d013954	0.031548813
20	0x3d02513d	0.031815756
21	0x3e20c690	0.15700746
22	0xbd1c0090	-0.038086474
23	0x3e9d7b91	0.30758336
24	0x3edee988	0.43537545
25	0x3dd424ab	0.10358556
26	0x3eb847ec	0.35992372
27	0xbda95bb6	-0.082694456
28	0x3e3f2f58	0.18670404
29	0xbe16fad6	-0.14744124
30	0x3e3555bf	0.17708491
31	0x3e4a97e2	0.19784501
32	0xbe2c1adc	-0.16807121
33	0xbbfde622	-0.0077483812
34	0xbe5bbd3c	-0.21458906
35	0xbd71d17d	-0.059037674
36	0x3d9c20df	0.07623457
37	0xbe399097	-0.18121563
38	0xbe81acdd	-0.25327197
39	0xbe1ad634	-0.15120775
40	0xbe4cf856	-0.20016608
41	0xbe216f15	-0.1576503
42	0x3d78fa00	0.060785294
43	0x3e384862	0.17996362
44	0x3e3c92bd	0.18415351
45	0x3e1fb455	0.15596135
46	0x3e99c5ea	0.3003381
47	0x3e5e5926	0.21713695
48	0x3d6eb2b7	0.058275905
49	0x3de38d0d	0.11110888
50	0x3de22a2c	0.110432
51	0x3ee66847	0.45001432
52	0x3f104d46	0.5636791
53	0x3ef70242	0.4824391
54	0x3e1bfcb1	0.15233113
55	0x3ef4c7a9	0.4780858
56	0x3ee75f88	0.45190072
57	0x3eb0219f	0.3440065
58	0x3d1ba6e2	0.03800095
59	0x3e316001	0.17321779
60	0xbdb4aded	-0.08822236
61	0xbe94c976	-0.29059952
62	0xbea632c6	-0.32460612
63	0xbdb3a84f	-0.08772337
64	0xbe0c8968	-0.13724291
65	0xbe6eb703	-0.23312001
66	0xbeab6152	-0.33472687
67	0xbec4a924	-0.38410294
68	0xbe571f6f	-0.21008085
69	0xbd375c67	-0.044765856
70	0xbe876654	-0.26445258
71	0xbe473b48	-0.19456208
72	0x3c8509c9	0.016240017
73	0x3d478c12	0.048717566
74	0x3d33fcea	0.04394237
75	0xbcde1f55	-0.02711455
76	0xbd8423f5	-0.06452171
77	0xbeae4981	-0.34040454
78	0x3dd4ed96	0.103968784
79	0xbd2926ea	-0.041296877
80	0x3e1ceeeb	0.15325515
81	0xbe61b6bd	-0.22042365
82	0xbde6ec32	-0.112755194
83	0x3dad0556	0.084482834
84	0x3da91923	0.082567476
85	0x3e4aff0b	0.19823854
86	0x3e821e93	0.2541395
87	0x3ee4742b	0.4461988
88	0x3f259aa0	0.64689064
89	0x3ec101c8	0.3769667
90	0x3e5c8c76	0.21537957
91	0x3f12aa8a	0.5729147
92	0x3eca3137	0.39490673
93	0x3dd81ed8	0.10552758
94	0x3e88cf19	0.26720503
95	0x3eb3452a	0.35013705
96	0x3d60bb71	0.054866258
97	0x3ded3750	0.11582816
98	0x3e685481	0.22688486
99	0x3ded2374	0.11579028
100	0xbe1a02e7	-0.1504017
101	0xbd65c392	-0.056094714
102	0xbe10acb6	-0.14128384
103	0xbe24f9c0	-0.16110897
104	0x3def2136	0.11676256
105	0xbdb8eb32	-0.09029235
106	0xbdcf26a4	-0.10114792
107	0xbd5b2b80	-0.05350828
108	0xbdd84fea	-0.105621174
109	0xbd4b646c	-0.049656317
110	0x3db95639	0.09049649
111	0x3d8bdef4	0.06829634
112	0xbd03ec21	-0.032207612
113	0xbe36cae1	-0.1785083
114	0x3e642db0	0.22283053
115	0x3d50c041	0.050964598
116	0xbdf01246	-0.117222354
117	0x3c4f9547	0.012669868
118	0xbde61f31	-0.11236418
119	0x3d02c060	0.031921744
120	0xbe225b9c	-0.15855259
121	0x3d20bf89	0.039245162
122	0xbd0d7f97	-0.034545507
123	0x3e6f4f53	0.23370104
124	0xbc634a2d	-0.013872665
125	0x3e526508	0.20546353
126	0x3f2d2832	0.6763946
127	0x3ee74486	0.45169467
128	0x3f11554c	0.5677078
129	0x3ee22fcb	0.44177088
130	0x3efe003e	0.4960956
131	0x3f526061	0.8217831
132	0x3f51506c	0.8176334
133	0x3f14dfcf	0.58154005
134	0x3f32a857	0.69788116
135	0xbd4fab12	-0.050700255
136	0xbc8a866a	-0.016909797
137	0xbd97cd69	-0.07412226
138	0x3e74a798	0.23892057
139	0x3e9a55ed	0.3014368
140	0xbe3039a1	-0.17209484
141	0xbeef2d90	-0.4671445
142	0xbf130d75	-0.5744241
143	0xbf04bdba	-0.51852
144	0xbd200ffc	-0.039077744
145	0xbec0e32a	-0.37673312
146	0xbf2625ad	-0.6490124
147	0xbf07d47f	-0.5305862
148	0xbef7b784	-0.483822
149	0xbcc0b439	-0.023523437
150	0xbe09d4cb	-0.1346008
151	0xbdd995a5	-0.106242456
152	0xbe104547	-0.14088927
153	0x3eb368a6	0.35040778
154	0x3eb8db71	0.3610492
155	0x3d00efbe	0.031478636
156	0xbe10a6b3	-0.1412609
157	0xbe6b36d8	-0.2297014
158	0x3d7706d7	0.060309257
159	0x3e679404	0.22615057
160	0xbe69a95b	-0.2281851
161	0xbc3135b9	-0.010816031
162	0xbe7baea2	-0.24578336
163	0x3dc04d7e	0.093897805
164	0x3eb133c1	0.34609798
165	0xbe1a8151	-0.15088393
166	0xbe0db4c0	-0.13838482
167	0xbe779c76	-0.24180779
168	0xbde7985a	-0.11308356
169	0x3cf1222c	0.02943524
170	0xbdfbd276	-0.122960016
171	0x3da99a12	0.0828134
172	0xbe591d9f	-0.21202706
173	0xbc104923	-0.0088065
174	0x3e95b8b2	0.29242474
175	0xbc408aac	-0.011751812
176	0xbe366743	-0.17812829
177	0xbe9ec0e0	-0.31006527
178	0xbec4b4fe	-0.38419336
179	0xbd4df9b2	-0.050286956
180	0x3d8a6d63	0.06759145
181	0x3e8ca875	0.27472273
182	0x3ed37da7	0.41306803
183	0x3f139cb9	0.57661015
184	0x3ecfbfb3	0.40575942
185	0x3ee4da4c	0.44697797
186	0x3f203f07	0.6259617
187	0x3f393d81	0.7235947
188	0x3ecf8d2e	0.405374
189	0x3ec41205	0.38294998
190	0xbe1a115b	-0.15045683
191	0x3e52465b	0.20534651
192	0xbe31a259	-0.17347087
193	0x3e4bd849	0.19906725
194	0x3e8213c1	0.25405696
195	0xbe5176f1	-0.20455529
196	0xbefad437	-0.48990032
197	0xbef64b38	-0.48104262
198	0xbe9c659f	-0.3054628
199	0xbd89428f	-0.06702148
200	0xbea225b3	-0.31669387
201	0xbe8a080a	-0.26959258
202	0xbd39418c	-0.045228526
203	0x3eacda4f	0.33760306
204	0x3dd94275	0.10608379
205	0xbecc864b	-0.39946207
206	0xbe2accb1	-0.16679646
207	0x3eb7e7a0	0.35918903
208	0x3f0105f5	0.50399715
209	0x3c8bebee	0.017080273
210	0x3b6c660f	0.0036071574
211	0x3e3107c2	0.17288116
212	0x3ef08d06	0.46982592
213	0x3eb614f7	0.3556287
214	0xbd8f5bf6	-0.06999962
215	0xbe8242e8	-0.2544167
216	0x3bd9880b	0.006638532
217	0x3f0d52bc	0.5520437
218	0x3ed5ccc6	0.41757792
219	0xbe36100a	-0.17779556
220	0x3cfc81fa	0.030823696
221	0x3e2e3a24	0.17014366
222	0x3efec06f	0.4975619
223	0x3e801698	0.25017238
224	0xbe539864	-0.20663601
225	0xbe1a924b	-0.15094869
226	0x3b9eaab3	0.0048421263
227	0x3f0a6440	0.5405922
228	0x3f145a1c	0.57949996
229	0x3eccaae5	0.39974132
230	0x3e69e6c7	0.22841941
231	0x3ef403ef	0.4765925
232	0x3f4b754b	0.7947585
233	0x3f25038c	0.6445854
234	0x3e9aa0b5	0.30200735
235	0x3e662c32	0.22477797
236	0x3eccd771	0.4000812
237	0x3f792858	0.97327185
238	0x3f6320ab	0.8872172
239	0x3e6f66b2	0.23379019
240	0x3e02223e	0.12708375
241	0x3f2cbcca	0.6747557
242	0x3f5b7674	0.8572762
243	0x3f09321d	0.5359209
244	0x3e971213	0.29505977
245	0x3e13f2d8	0.14448106
246	0x3ecd1a56	0.40059155
247	0x3e1edff5	0.1551512
248	0x3ed82a3f	0.4221973
249	0xbe1d52b0	-0.15363574
250	0x3ea0a8ad	0.3137869
251	0x3f004e66	0.50119627
252	0x3e81df6b	0.25365767
253	0xbe42fd27	-0.19041882
254	0xbe482d9e	-0.19548652
255	0x3e7e17a3	0.24813704

conv1.bias f4 [12]
0	0x3e2db4fe	0.16963574
1	0x3d9216f0	0.07133281
2	0x3dd3b7b7	0.10337775
3	0x3bd8f16e	0.0066205775
4	0x3e9ef9c0	0.3104992
5	0x3da76213	0.08173003
6	0x3deebed9	0.11657495
7	0x3944005c	0.0001869215
8	0xbd57b7ce	-0.052665524
9	0x36d24c23	6.267351e-06
10	0x3d810228	0.062992394
11	0xbd931a74	-0.0718278

conv2.weight f4 [12, 12, 5, 5]
0	0x3e12f97e	0.14352986
1	0xbc486646	-0.012231415
2	0x3d163d60	0.036679626
3	0xbd425f03	-0.04745389
4	0xbd0fcb98	-0.03510627
5	0x3d5bc373	0.05365319
6	0x3ddf75a1	0.10911108
7	0xbbb6ae6e	-0.005574993
8	0xbd4b0ece	-0.049574666
9	0x3c33b479	0.010968321
10	0xbd121d8c	-0.03567271
11	0xbc01219d	-0.007881549
12	0x3cd6a718	0.026202723
13	0xbd8cd656	-0.06876819
14	0x3c86029d	0.016358668
15	0x3da355c3	0.07975342
16	0xbc2791c2	-0.010227622
17	0x3d4b7f15	0.04968174
18	0x3d4e4d2b	0.05036656
19	0x3d36db71	0.04464287
20	0x3cf7079d	0.030154997
21	0xbbb4f02e	-0.0055217957
22	0x3cfcbfba	0.030853141
23	0xbd580c7c	-0.05274628
24	0xbc390627	-0.011292971
25	0x3dd67a9f	0.10472607
26	0x3d913388	0.07089907
27	0x3dda85f9	0.106700845
28	0x3daaf833	0.083481215
29	0x3cd767a2	0.026294533
30	0x3cafc6c0	0.021457076
31	0x3c7fa027	0.015602148
32	0xbd36e862	-0.04465521
33	0xbd8c9eb3	-0.06866207
34	0x3d3217ce	0.043479733
35	0xbcf66940	-0.030079484
36	0xbcf0a5bd	-0.029375905
37	0x3dabd88b	0.08390912
38	0xbc52c4b7	-0.012864283
39	0x3cd6d00b	0.02622225
40	0xbd0ec432	-0.034855075
41	0x3d25fc18	0.04052362
42	0x3d2cf725	0.042227883
43	0x3d54fc42	0.051998384
44	0xbcfa10c4	-0.030525573
45	0x3d362c19	0.04447565
46	0xbd7a45ef	-0.06110185
47	0xbc82519d	-0.015908057
48	0x3cdf444d	0.027254248
49	0x3d4f16d0	0.050558865
50	0xbd9159cf	-0.07097208
51	0xbcb660da	-0.02226298
52	0xbaa25fc8	-0.0012388164
53	0x3b80c819	0.0039301035
54	0x3ccd8872	0.025089476
55	0x3d8116ac	0.063031524
56	0x3d049741	0.03237081
57	0x3bb14cbc	0.005410759
58	0x3ce03a84	0.027371652
59	0x3d6b9651	0.0575164
60	0x3bff2698	0.007786583
61	0x3d62ea1b	0.05539904
62	0x3dc263c3	0.09491684
63	0x3bce17f4	0.0062894765
64	0x3c859a6e	0.01630899
65	0xbd93f476	-0.072243616
66	0xbb711ddf	-0.0036791486
67	0x3d5b74a3	0.05357803
68	0xbd5b0950	-0.053475678
69	0x3ca3aba5	0.019979307
70	0xbc6fd317	-0.01463773
71	0xbd55ad55	-0.052167255
72	0xbc05fa75	-0.008177389
73	0x3d469d38	0.04848978
74	0xbd236757	-0.039893474
75	0xbbb248c4	-0.0054408032
76	0x3cb7dea4	0.02244503
77	0xbbb80513	-0.0056158393
78	0x3d891204	0.06692889
79	0x3d94f7f8	0.07273859
80	0x3dcf5f07	0.10125547
81	0x3d14076e	0.036139898
82	0x3dc91bb2	0.098197356
83	0x3ba4b3f4	0.005026335
84	0xbd776e13	-0.06040771
85	0xbd7d8097	-0.06189021
86	0xbc434b0f	-0.011919751
87	0xbc2ab0a2	-0.010418089
88	0xbd509397	-0.050922003
89	0xbd10dde1	-0.03536785
90	0xbd68d697	-0.056845274
91	0x3d08d120	0.033402562
92	0xbcdbf94a	-0.026852269
93	0xbd28e432	-0.04123325
94	0xbc49d72c	-0.012319367
95	0x3d513cac	0.05108325
96	0x3d7614f6	0.060078584
97	0x3c20970f	0.00980164
98	0xbd013f47	-0.031554487
99	0xbcb4dbec	-0.022077523
100	0x3c97fe3b	0.018553844
101	0xbc220e2b	-0.009891073
102	0x3cfac89f	0.030613242
103	0xbd00419d	-0.031312574
104	0x3d4163ed	0.047214437
105	0xbd72067b	-0.05908821
106	0xbc2b42dc	-0.010452952
107	0x3d307751	0.04308254
108	0xbd63b26e	-0.055590086
109	0x3d1e2e6c	0.03861849
110	0x3d7f41a8	0.062318474
111	0x3cf5b388	0.029992834
112	0x3ca56577	0.020189984
113	0xbc83e846	-0.016101968
114	0xbced8bff	-0.02899742
115	0xbcca8910	-0.02472356
116	0x3d269653	0.040670704
117	0xbd31094c	-0.043221757
118	0xbc42ccb2	-0.0118896235
119	0x3caaf241	0.020867469
120	0xbc27c5e7	-0.010240055
121	0xbd19f62f	-0.037588295
122	0xbca74f40	-0.020423532
123	0x3d437778	0.047721356
124	0xbd0372f3	-0.032092046
125	0xbdbffea7	-0.09374743
126	0xbe2fdea0	-0.17174768
127	0xbb82b7a7	-0.003989178
128	0xbbfc748b	-0.0077043227
129	0xbd10ad59	-0.035321567
130	0x3e3dd88b	0.18539636
131	0x3e0ddbb0	0.13853335
132	0x3d093093	0.03349359
133	0x3d194bc1	0.03742576
134	0x3a2d876d	0.0006619606
135	0x3e3594c1	0.17732526
136	0x3e0b84ad	0.1362483
137	0x3da4a10f	0.08038532
138	0x3d2e4605	0.042547245
139	0xbd84d8fa	-0.064866975
140	0xbdc57a66	-0.09642486
141	0xbd3e4edf	-0.046461936
142	0xbd92ca03	-0.07167437
143	0xbd1069a1	-0.035256986
144	0xbda282c7	-0.079351
145	0x3c4a95ff	0.012364863
146	0x3c22ab06	0.0099284705
147	0x3cc2209e	0.023697194
148	0x3d4060f3	0.046967458
149	0x3d3510ea	0.044205584
150	0x3d5a7671	0.05333561
151	0xbd3b06f1	-0.045660917
152	0xbd0353be	-0.032062285
153	0xbbbaffdc	-0.0057067703
154	0xbd3ab11b	-0.045579057
155	0x3d59485c	0.053047523
156	0xbd46dbf5	-0.04854961
157	0xbca51d73	-0.020155644
158	0x3d0fda10	0.03512007
159	0x3cec2017	0.028823895
160	0x3d8b36eb	0.06797584
161	0x3cb892fd	0.022531027
162	0x3d0e1bb6	0.034694396
163	0x3cc474ce	0.023981478
164	0x3c3a9069	0.011386969
165	0xbc7806f5	-0.015138377
166	0xbc8ee7ba	-0.01744448
167	0x3cc03801	0.023464205
168	0xbbc9ef4d	-0.00616256
169	0xbd09e5df	-0.033666488
170	0xbba5957a	-0.0050532194
171	0x3a9eddd7	0.0012120557
172	0xbce0cdc1	-0.027441861
173	0x3c291d82	0.010321977
174	0x3c9afbc3	0.018918877
175	0x3d5c89bd	0.053842295
176	0xbd35a516	-0.04434689
177	0xbe14c56b	-0.14528434
178	0xbd06f984	-0.0329528
179	0x3d244f5f	0.040114757
180	0x3d85f54e	0.06540929
181	0x3e025c03	0.12730412
182	0x3e4f4aa6	0.2024332
183	0x3dc55f4f	0.09637319
184	0x3d48a75f	0.048987743
185	0xbd613f60	-0.05499208
186	0xbd446992	-0.047952242
187	0xbd075edb	-0.033049446
188	0xbd9521d0	-0.0728184
189	0xbd99b742	-0.07505657
190	0x3be6df92	0.0070456946
191	0xbdb06720	-0.086134195
192	0xbd5c2b89	-0.053752456
193	0x3c29e289	0.010368952
194	0x393f3d2b	0.00018237966
195	0x3c7fddd5	0.015616854
196	0x3d27ec10	0.04099661
197	0xbb5ac4df	-0.0033381504
198	0xbd5d1eda	-0.0539845
199	0x3d3667e2	0.044532664
200	0xbc85ee23	-0.016348904
201	0x3d9b8401	0.07593537
202	0xbd0f238c	-0.03494601
203	0xbc2d0f58	-0.01056274
204	0xbcb76212	-0.02238563
205	0xbdc06984	-0.093951255
206	0x3db51a21	0.08842874
207	0x3d84154c	0.064493746
208	0x3daf5bbc	0.08562419
209	0x3d73116b	0.059342783
210	0xbdb08251	-0.08618606
211	0xbd136e58	-0.035993904
212	0xbdbe8ad8	-0.09303826
213	0xbd81820b	-0.06323632
214	0x3bbde582	0.0057951817
215	0xbd8bbab3	-0.068227194
216	0x3c8ba0b5	0.017044405
217	0x3d47cb67	0.048777964
218	0x3d842763	0.06452825
219	0xbd4f7d74	-0.05065675
220	0xbd0b3cf1	-0.033993665
221	0x3c433b76	0.011916032
222	0x3d39275f	0.045203563
223	0x3ce2e919	0.02769904
224	0xbc085026	-0.00831989
225	0xbd4e4c84	-0.05036594
226	0x3cd2dec1	0.025740983
227	0xbda6e385	-0.08148865
228	0x3bfa55c5	0.007639619
229	0x3dbf946d	0.09354482
230	0xbcffe617	-0.031237645
231	0x3df29e8e	0.11846648
232	0x3dfb2d70	0.12264526
233	0xbce53812	-0.027980838
234	0x3d90b64d	0.07066021
235	0xbdc762ee	-0.09735666
236	0x3d719794	0.058982447
237	0xbd44471c	-0.047919378
238	0xbd3ca2dd	-0.046053756
239	0xbce3c2c5	-0.027802834
240	0xbdcd9682	-0.10038473
241	0xbd31e59d	-0.043431867
242	0xbd772340	-0.06033635
243	0xbd8c1f04	-0.06841853
244	0xbdc40421	-0.095711
245	0xbd562bf3	-0.052288007
246	0xbce6af3b	-0.028159728
247	0x3c985028	0.018592909
248	0xbd85ab36	-0.065267965
249	0xbd960549	-0.07325227
250	0x3d70d346	0.058795236
251	0xbd936e84	-0.071988136
252	0xbcb5b121	-0.022179188
253	0xbb95b16d	-0.00456827
254	0xba058b1b	-0.00050942757
255	0x3da1ff3a	0.07910009

conv2.bias f4 [12]
0	0xbbe79d68	-0.007068325
1	0xbd982896	-0.07429616
2	0xbc50546d	-0.012715441
3	0xbdae2b82	-0.08504392
4	0xbd63ed46	-0.055646203
5	0xbd999fab	-0.075011574
6	0xbda0ed00	-0.07857704
7	0xbd5e97e5	-0.054344077
8	0xbd9fe7e0	-0.078078985
9	0xbcf3560f	-0.029704122
10	0xbe249fda	-0.16076604
11	0x3c79ce56	0.015246948

fc1.weight f4 [200, 588]
0	0xbb3e886e	-0.0029073018
1	0xbd264e2e	-0.0406019
2	0x3c358dda	0.011081183
3	0xbc0bd495	-0.00853457
4	0x3c74b622	0.014936002
5	0xbd296cc3	-0.04136349
6	0x3c54a86a	0.012979606
7	0x3c093d0d	0.008376372
8	0xbcb5131d	-0.02210384
9	0xbd1adf14	-0.0378104
10	0x3cffc985	0.031224022
11	0x3ce68bb5	0.02814279
12	0xbbda08c9	-0.0066538793
13	0x3ba9441b	0.0051655895
14	0xbd06ad9b	-0.032880407
15	0x3ca466a2	0.02006847
16	0xbcd3b7e0	-0.025844514
17	0xbd4abe34	-0.049497798
18	0xbcd7706e	-0.026298728
19	0x3bee6f75	0.0072764703
20	0xbd263022	-0.040573247
21	0x3c848cc1	0.016180398
22	0x3c8a3527	0.016871048
23	0x3cfa4ba5	0.030553648
24	0x3c418623	0.011811766
25	0xbcd153eb	-0.02555271
26	0x3cb313f0	0.021860093
27	0xbc234400	-0.009964943
28	0xbce1eb33	-0.027577972
29	0x3d3b6c8f	0.045757826
30	0x3cca2d02	0.024679665
31	0x3cb8b124	0.022545405
32	0xbc2b63af	-0.010460778
33	0xbbcd5307	-0.006266001
34	0xbcf39d8c	-0.02973821
35	0x3d1dfd77	0.0385718
36	0xbc47f011	-0.012203232
37	0xbd82ad96	-0.06380765
38	0xbc98f38e	-0.018670823
39	0xbb9316f9	-0.0044888225
40	0xbb3ea264	-0.0029088492
41	0xbcce6f3a	-0.025199521
42	0x3c097975	0.008390774
43	0xbcabe57e	-0.020983454
44	0x3ce0e19f	0.027451335
45	0x3c1e46e2	0.0096604545
46	0xbcaa2c11	-0.020772966
47	0xbcb6b33e	-0.022302266
48	0xbc22c784	-0.009935264
49	0xbc97ca47	-0.01852907
50	0xbc0dcab0	-0.0086542815
51	0xbcaf3e34	-0.021391965
52	0x3ce23201	0.027611734
53	0xbcb99a93	-0.022656715
54	0xbc86838f	-0.016420154
55	0x3b587d20	0.0033033565
56	0x3d2fb217	0.04289445
57	0xbc701102	-0.0146524925
58	0xbc6cfee9	-0.014465072
59	0xbba499c3	-0.0050232126
60	0xbd93644b	-0.07196864
61	0x3c10afc9	0.008830973
62	0xbcf97b33	-0.030454254
63	0x3d66a856	0.05631288
64	0x3c61aed3	0.0137745915
65	0xba38d656	-0.00070509815
66	0x3c208ac8	0.009798713
67	0xbd0e7294	-0.03477724
68	0xbcfa1553	-0.030527746
69	0x3d5bbb9a	0.053645708
70	0x3d14418e	0.03619533
71	0x3bcc3e9b	0.006233049
72	0xbc2c4847	-0.010515279
73	0xbcd3fc7d	-0.025877232
74	0x3c2a4ba9	0.010394015
75	0x3d918f13	0.07107367
76	0x3c4ce24c	0.012505125
77	0x3d015f43	0.03158499
78	0x3d59f542	0.05321241
79	0xbc9c23c2	-0.01906002
80	0xbbe88d22	-0.0070969025
81	0x3c42adf9	0.011882299
82	0xbcf50e87	-0.029914154
83	0xbcd001b9	-0.025391446
84	0xbafe19ff	-0.001938641
85	0x3d2a34f2	0.0415544
86	0xbd351bd5	-0.044215996
87	0xbca89aeb	-0.020581683
88	0x3cc64952	0.024204884
89	0x3d42e113	0.04757793
90	0x3c05c025	0.008163487
91	0xbc3074ad	-0.010770005
92	0x3c9af01c	0.018913321
93	0xbd277b31	-0.04088897
94	0x3ac65714	0.0015132152
95	0xbb42f828	-0.0029749963
96	0x3cc04f9b	0.023475459
97	0x3cb80be0	0.0224666
98	0xbccfe794	-0.02537898
99	0x3cba7f0e	0.022765663
100	0xbc4963f3	-0.012291896
101	0x3c2cc219	0.010544323
102	0x3d0f782a	0.035026707
103	0x3c2e009d	0.010620263
104	0x3cb31962	0.02186269
105	0xbbf5bb42	-0.0074991295
106	0x3bceaf09	0.006307487
107	0x3d2abd5e	0.0416845
108	0x3cdd8247	0.02703966
109	0x3d321ca3	0.04348434
110	0x3dbaf22d	0.091282226
111	0x3d018b2d	0.03162687
112	0xbc27f1b2	-0.010250496
113	0x3d18ceae	0.03730648
114	0x3d52db6d	0.051478792
115	0x3cc2b4a5	0.023767779
116	0x3d308b34	0.043101504
117	0x3de1858e	0.11011802
118	0x3d9e2052	0.07721008
119	0x3c5a0aaa	0.013308207
120	0xbaaaa0e5	-0.0013017921
121	0x3d5ec123	0.05438341
122	0xbcb765b9	-0.022387372
123	0xbd3e1555	-0.046407063
124	0xbd12cf63	-0.03584231
125	0x3d272528	0.04080692
126	0x3d091b65	0.03347339
127	0x3cc476f2	0.023982499
128	0xba04afc1	-0.000506159
129	0xbd6d2cba	-0.057903983
130	0x3bd2993a	0.0064269574
131	0x3d9b97de	0.07597326
132	0xbcfd1e11	-0.030898126
133	0xbcf32497	-0.029680533
134	0xbd302d9b	-0.043012243
135	0x3c8220e7	0.01588483
136	0x3d234bb8	0.039867133
137	0xbd24fb2f	-0.04027861
138	0xbd210351	-0.039309803
139	0xbbc0269d	-0.005863978
140	0x3b3e17a0	0.002900578
141	0x3d03bca7	0.032162335
142	0x3c5d25b9	0.013497763
143	0x3da77549	0.08176667
144	0x3c784d13	0.015155095
145	0xbc8bce14	-0.01706604
146	0xbd790820	-0.060798764
147	0xbd01ed3d	-0.03172039
148	0xbc91dbe3	-0.017805045
149	0x3cd5c5e5	0.02609534
150	0x3d2ad91e	0.041710965
151	0xbc85064b	-0.016238352
152	0x3bbaa489	0.0056958837
153	0xbc841aca	-0.016126055
154	0xbc50c9b5	-0.012743403
155	0xbd31eced	-0.04343884
156	0xbd70a213	-0.058748316
157	0x3c5f9e56	0.01364859
158	0x3d8b76fe	0.06809805
159	0x3d91410c	0.07092485
160	0xbc7bfd4d	-0.015380216
161	0x3d552cf2	0.052044816
162	0x3c9b9809	0.018993394
163	0xbd10e227	-0.035371926
164	0x3dca8eb4	0.098905
165	0x3da727fb	0.081619225
166	0x3d76bc32	0.06023807
167	0xbcadc749	-0.02121319
168	0xbb92561f	-0.004465833
169	0x3c51c276	0.012802711
170	0x3d43d200	0.047807693
171	0x3cf756e0	0.030192792
172	0x3d46e132	0.048554607
173	0x3ab63bb2	0.0013903289
174	0x3c7df9ab	0.01550142
175	0x3d0cf85a	0.034416534
176	0x3b832116	0.004001747
177	0xbcecb566	-0.028895091
178	0x3d8a020e	0.06738673
179	0x3c869626	0.016429018
180	0x3b51c418	0.003200775
181	0xbccdf72b	-0.025142273
182	0xbcef8f03	-0.029242998
183	0xbcfcd201	-0.030861856
184	0xbd1a2bf4	-0.037639573
185	0x3d5b7f31	0.053588096
186	0xbc8b0b7e	-0.016973253
187	0xbd3cad63	-0.046063792
188	0xbd0ccd5a	-0.034375526
189	0xbbecbc63	-0.007224606
190	0xbad0bdf6	-0.0015925753
191	0x3d1a57dc	0.037681445
192	0x3be7c0ca	0.007072543
193	0xbd041bcc	-0.03225307
194	0xbc96c803	-0.01840592
195	0x3d064544	0.0327809
196	0x3c2e662c	0.010644477
197	0x3ce9db2e	0.028546896
198	0xbc2a70eb	-0.010402898
199	0x3ca74449	0.020418303
200	0xba91f7c7	-0.0011136465
201	0x3cdac594	0.02670554
202	0x3c9767a1	0.018482031
203	0xbc9d8e5b	-0.01923292
204	0x3d088e52	0.033338852
205	0xbda4912f	-0.08035504
206	0xbe2644cc	-0.16237181
207	0xbca8ae2c	-0.020590864
208	0x3daac663	0.083386205
209	0x3c9b2d58	0.01894252
210	0x3d182575	0.037145097
211	0xbd1b2a40	-0.03788209
212	0xbd44d6b9	-0.048056338
213	0x3bfa742c	0.0076432433
214	0x3dd36dc6	0.10323672
215	0x3e0bd8a6	0.13656864
216	0x39991e0d	0.00029204824
217	0xbd02dcbb	-0.031948786
218	0x3cf2fd46	0.029661786
219	0x3d545064	0.05183448
220	0x3d700635	0.05859967
221	0x3dcd6a43	0.100300334
222	0xbc9391e5	-0.018013904
223	0xbd180634	-0.03711529
224	0xbd0869ff	-0.03330421
225	0x3c8fd6ba	0.017558444
226	0xbce45951	-0.02787462
227	0xbd1a7d03	-0.037716877
228	0x3b893e3f	0.0041883285
229	0xbd0146c7	-0.03156164
230	0x3c75b979	0.014997833
231	0xbc630ef0	-0.013858542
232	0xbc4009e1	-0.011721105
233	0xbc7030e5	-0.014660095
234	0xbd928dbe	-0.071559414
235	0xbcd0448e	-0.025423314
236	0xbc00b024	-0.007854495
237	0xbd19b0f3	-0.037522268
238	0x3c009f39	0.007850462
239	0x3d3ab2b9	0.0455806
240	0xbd36ebf2	-0.04465861
241	0xbd2d64f0	-0.04233259
242	0xbd3a44a7	-0.04547563
243	0xbad57d7a	-0.0016288005
244	0xbca68610	-0.020327598
245	0xbc53ef73	-0.012935507
246	0x3d3e1fc5	0.046417017
247	0xbc46eeae	-0.012141867
248	0x3d23715f	0.03990304
249	0xbd1d135b	-0.038348537
250	0xba7dce48	-0.00096819224
251	0xbc25bb7e	-0.010115502
252	0x3d2f15d8	0.04274544
253	0x3da36f82	0.07980253
254	0x3cdfece5	0.02733464
255	0xbd999f5c	-0.075010985

fc1.bias f4 [200]
0	0xba969c88	-0.0011490742
1	0xbc26afce	-0.010173751
2	0x3c4a3c24	0.01234344
3	0xbce75d26	-0.028242659
4	0x3c8b3790	0.016994268
5	0x3bf0541a	0.0073342444
6	0x3ac213c7	0.001480692
7	0xbca4af61	-0.020103158
8	0xbd4a0236	-0.049318515
9	0xbc94d2ca	-0.018166918
10	0xbcef4895	-0.029209414
11	0x3c96d609	0.018412607
12	0x3cda4a3b	0.026646724
13	0x3d34d057	0.044144
14	0x3d00bc71	0.03142971
15	0x3cb15834	0.021648504
16	0x3bafb705	0.005362394
17	0x3ccd52cc	0.025063895
18	0xbb5847e7	-0.0033001842
19	0x3cdd6ab0	0.027028412
20	0xbd475a5e	-0.048670165
21	0x3bd46a8e	0.006482429
22	0x3d216e23	0.039411675
23	0x3d2927d9	0.041297767
24	0xbcbd7818	-0.023128554
25	0xbc920636	-0.017825227
26	0x3cf24651	0.029574545
27	0x3cf4d86f	0.02988836
28	0x3c07581c	0.008260753
29	0xbafca9cf	-0.0019276681
30	0x3bf53786	0.0074834256
31	0x3cc5f806	0.024166118
32	0xbd27f330	-0.041003406
33	0xbcd50b56	-0.026006382
34	0x3c975be2	0.01847643
35	0xbb839286	-0.0040152697
36	0x3bc168c3	0.005902381
37	0x3d37debc	0.04489015
38	0xbd31a041	-0.04336572
39	0xbced91f1	-0.029000254
40	0xbbf61924	-0.007510321
41	0x3d32f4d0	0.043690503
42	0xbc8b546a	-0.017008025
43	0x3c9d059a	0.01916771
44	0x3d4354d8	0.047688335
45	0x3c6073a7	0.013699449
46	0xba76dc3d	-0.00094169733
47	0xbbe67880	-0.0070334077
48	0x3cb7d6cf	0.022441296
49	0x3d227934	0.03966637
50	0xbc96a2fb	-0.018388262
51	0xbc1b5347	-0.009480304
52	0xbb1c2a0c	-0.0023828773
53	0x3d28433f	0.041079756
54	0x3cf2c61f	0.029635487
55	0x3d277b97	0.04088935
56	0x3c46f69d	0.012143758
57	0x3cb9645c	0.022630863
58	0x3d2e439e	0.042544954
59	0xbcabe2df	-0.020982204
60	0x37d715d7	2.5640167e-05
61	0x3c62cea3	0.013843211
62	0x3cd8241a	0.026384402
63	0x3ce26a5c	0.027638607
64	0x3c3f4af7	0.011675588
65	0xbb960346	-0.004578027
66	0x3d04ec63	0.032452
67	0xbca06e5c	-0.019583873
68	0xbbaeba4d	-0.0053322674
69	0xbb721f67	-0.0036944987
70	0x3c7c56ba	0.015401537
71	0x3d5188e2	0.051155932
72	0x3caf204c	0.021377705
73	0x3c8df824	0.017330237
74	0x3cdda2d3	0.02705518
75	0x3cfa1cf0	0.030531377
76	0x3cecd7e8	0.028911546
77	0xbcf2fa53	-0.02966038
78	0xbc6b17a1	-0.014348895
79	0x3c9cc7a3	0.019138163
80	0xbcd71580	-0.02625537
81	0xbd141c43	-0.036159765
82	0xbcf35e64	-0.029708095
83	0xbba04e79	-0.004892167
84	0xbcae57ce	-0.021282103
85	0xbb1d4bd4	-0.0024001496
86	0xbd24543b	-0.04011939
87	0x3c3401db	0.0109867705
88	0x3cad11ba	0.021126617
89	0x3c3e16a9	0.011602082
90	0x3d089d2a	0.03335301
91	0xbd214c98	-0.039379686
92	0xbcc1da88	-0.023663774
93	0xbc3ab951	-0.011396722
94	0xbb43fd0d	-0.0029905469
95	0x3d02d3d5	0.0319403
96	0x3d019142	0.03163267
97	0xbc4b38fc	-0.012403723
98	0xbba72b2b	-0.0051015816
99	0x3bb27af4	0.005446786
100	0x3b2d0684	0.0026401589
101	0xbb879c77	-0.004138525
102	0xbd0eb5e8	-0.034841448
103	0x3bfc5ad6	0.007701258
104	0xbd217a73	-0.039423417
105	0xbbb7f9ac	-0.00561448
106	0x3cafb87c	0.021450274
107	0xbcb5a478	-0.022173151
108	0xbcaa06d4	-0.020755209
109	0xbc6f5973	-0.014608729
110	0x3d29d795	0.04146536
111	0x3d0edf9c	0.03488122
112	0x3cc9852c	0.024599634
113	0xbbd14f4d	-0.006387627
114	0xbc97e062	-0.018539611
115	0x3bef8d21	0.007310525
116	0x3d2755df	0.040853377
117	0xbd3574ca	-0.04430083
118	0x3cf7f4a8	0.030268028
119	0x395cb605	0.00021048643
120	0x3d256228	0.040376812
121	0x3cd45e80	0.025923967
122	0xbcafdf3b	-0.02146875
123	0xbc09a063	-0.008400056
124	0x3bff22bf	0.0077861245
125	0x3d4db047	0.05021694
126	0xbd360085	-0.04443409
127	0x3b36a9e4	0.0027872259
128	0x3cfe8f53	0.031074202
129	0x3bd72839	0.006566074
130	0xbc1bf5b4	-0.009519029
131	0x3b48cd78	0.0030640047
132	0x3ced8c28	0.028997496
133	0x3c1c4b69	0.009539464
134	0x3c2f1a9e	0.010687498
135	0xbd33cda6	-0.043897294
136	0x3a8a79a9	0.0010564822
137	0x3c6fd86e	0.014639003
138	0x3d6128a7	0.05497041
139	0x3b651d40	0.0034960061
140	0x3cacc282	0.021088842
141	0xbce912dd	-0.028451378
142	0x3cb62f91	0.022239478
143	0x3b117223	0.0022193275
144	0x3c50ca1f	0.012743502
145	0x3cbdb47b	0.023157349
146	0x3c800e12	0.01563171
147	0x3cd55ca1	0.026045145
148	0x3cc02fd0	0.023460299
149	0xbcde252e	-0.027117338
150	0x3c83a550	0.016070038
151	0x3c93b7d3	0.01803199
152	0x3cb7eedd	0.022452766
153	0x3bec78ee	0.0072165644
154	0x3d3ea5ec	0.046544954
155	0xbd0616b0	-0.03273648
156	0xbd07a74b	-0.033118527
157	0x3c93c1cd	0.018036747
158	0xbd03e073	-0.032196473
159	0x3d0df364	0.034655944
160	0x3d16508b	0.036697906
161	0xbc8e14d1	-0.01734391
162	0xbcf1b596	-0.029505532
163	0x3cca0a75	0.02466319
164	0xbcc2c687	-0.023776306
165	0x3d29a446	0.04141643
166	0x3d0419ae	0.032251053
167	0xbca4912c	-0.020088755
168	0xbc5fa77e	-0.013650773
169	0x3d0a627f	0.03378534
170	0x3cd6eb15	0.026235143
171	0x3c37d141	0.011219324
172	0x3d21ecce	0.039532475
173	0x3c82b745	0.01595653
174	0x39692de0	0.00022237701
175	0x3d2034f9	0.03911302
176	0xbcc2af1a	-0.023765136
177	0xbb48a333	-0.0030614852
178	0xbd182062	-0.037140258
179	0xbc8562b1	-0.016282411
180	0x3d37a787	0.0448375
181	0xbc19a771	-0.0093783
182	0x3c50e541	0.012749971
183	0xbc560d47	-0.013064689
184	0xbd0d372c	-0.034476444
185	0xbc85cb3f	-0.016332267
186	0x3d019bcb	0.031642716
187	0xbc686c4f	-0.014185979
188	0x3b750015	0.0037384082
189	0xbc677989	-0.014128097
190	0xbc11c3eb	-0.008896808
191	0x3c9b4da5	0.018957922
192	0x3c4ee340	0.012627423
193	0x3b77be08	0.0037802476
194	0x3cf7570e	0.030192878
195	0x3cdcbaac	0.02694448
196	0x3a5651bc	0.00081756315
197	0x3c507de1	0.012725324
198	0xbb05b1d1	-0.0020400176
199	0x3c39e7eb	0.011346797

fc2.weight f4 [100, 200]
0	0xbc76530c	-0.015034448
1	0xbcf46c16	-0.029836696
2	0x3dfd0750	0.123549104
3	0x3dc92912	0.09822287
4	0x3e06926a	0.1314179
5	0xbc846080	-0.016159296
6	0x3d0333f3	0.032031965
7	0xbd874993	-0.0660583
8	0xbc630e26	-0.013858354
9	0xbd4814c3	-0.048847925
10	0x3c87c7ef	0.016574828
11	0x3c2e82bf	0.0106512895
12	0xbda6d2f9	-0.081457086
13	0x3d16c443	0.036808264
14	0x3d5b6394	0.053561762
15	0x3d9c8a00	0.07643509
16	0xbdbc93ba	-0.09207864
17	0x3dbfa098	0.09356803
18	0x3d389cb6	0.045071326
19	0xbbb9fecc	-0.005676126
20	0xbcc32c49	-0.023824828
21	0xbd841cba	-0.06450792
22	0xbd5d83f8	-0.054080933
23	0xbc8f8050	-0.017517239
24	0x3d8855f7	0.066570215
25	0xbd8f0e98	-0.069852054
26	0xbdc59c00	-0.09648895
27	0xbc35aa0d	-0.011087907
28	0x3cd8e08d	0.026474262
29	0xbdacec1d	-0.084434725
30	0x3dc35c99	0.09539146
31	0x3daaf4bb	0.0834746
32	0x3d4e66e5	0.050391097
33	0x3c8a5281	0.016885044
34	0x3cc48a3b	0.023991695
35	0x3d84b953	0.0648066
36	0xbb798852	-0.0038075638
37	0x3c9b4c58	0.018957302
38	0xbcc18a4a	-0.023625512
39	0x3d4d1843	0.050071966
40	0xbd0601ed	-0.03271668
41	0x3d48d90e	0.049035124
42	0xbd558fd4	-0.05213912
43	0xbdc7ddc7	-0.097590975
44	0xbd9d57d8	-0.076827705
45	0x3d676584	0.056493297
46	0x3d6850cc	0.05671768
47	0xbda119aa	-0.07866223
48	0x3d85ef60	0.06539798
49	0xbca07420	-0.019586623
50	0x3e0bca0a	0.1365129
51	0xbd90f611	-0.070781834
52	0xbd3e1148	-0.0464032
53	0xbe03d1c2	-0.12872985
54	0xbde43637	-0.11143153
55	0x3c2b5c2a	0.010458985
56	0x3de7e342	0.11322643
57	0x3d8ced50	0.06881201
58	0x3ce74cfb	0.02823495
59	0xbd8871b8	-0.06662315
60	0xbd8bd7e7	-0.068282895
61	0xbd47322a	-0.048631825
62	0x3ca4d788	0.020122305
63	0xbcb78731	-0.022403331
64	0xbac8e5ad	-0.0015327238
65	0xbd91d5a8	-0.0712083
66	0x3dc6bdd3	0.09704175
67	0xbd88eb69	-0.06685526
68	0x3d4eaf79	0.050460313
69	0xbcf42f26	-0.029807638
70	0xbc865539	-0.01639806
71	0x3dac12d8	0.08402032
72	0xbdb01824	-0.085983545
73	0xbdb9276e	-0.09040724
74	0x3ce24501	0.027620794
75	0xbd88eeb1	-0.06686152
76	0x3d8c8813	0.068618916
77	0xbd00cb88	-0.031444103
78	0xbd2b2f93	-0.041793417
79	0xbd74b527	-0.059743073
80	0x3cf09181	0.029366257
81	0x3a955d61	0.0011395627
82	0x3d524561	0.051335696
83	0x3cee499c	0.029087834
84	0x3d28ee89	0.04124311
85	0x3c45dde2	0.012076827
86	0xbca7bde6	-0.020476293
87	0xbda4f49c	-0.08054468
88	0x3d368b45	0.04456641
89	0xbd834490	-0.06409562
90	0xbdf28f0d	-0.11843691
91	0xbba97209	-0.0051710648
92	0xbc2b3c67	-0.010451413
93	0x3d7567d7	0.059913483
94	0xbd79de93	-0.06100328
95	0xbbc424a2	-0.0059858123
96	0x3c2f671f	0.010705738
97	0xbd65ca87	-0.05610135
98	0xbd2f47f0	-0.042793214
99	0xbd8ae904	-0.067827255
100	0x3c38c3c2	0.011277141
101	0x3c1cecf9	0.009577983
102	0x3cc7e044	0.02439893
103	0xbc29b8ca	-0.010358999
104	0xbcfe6353	-0.03105322
105	0x3d2987b1	0.04138917
106	0xbd4bf713	-0.049796175
107	0x3ce10254	0.02746693
108	0xbb4f3918	-0.0031619724
109	0xbd1e4cde	-0.038647525
110	0x3d46cbb9	0.04853413
111	0xbd59a291	-0.05313355
112	0x3dd28d25	0.102808274
113	0x3c7841e6	0.01515243
114	0xbdc18175	-0.0944852
115	0x3a9c627a	0.0011931204
116	0x3cd558e5	0.026043365
117	0xbd801aad	-0.06255088
118	0xbdd8cd2f	-0.10586011
119	0xbcb1bf63	-0.021697706
120	0x3dbe65f0	0.09296787
121	0x3d877ca7	0.066155724
122	0x3d84e2c8	0.064885676
123	0x3d8dc2ab	0.069218956
124	0x3c0a00c4	0.008423034
125	0x3c7b5c34	0.015341807
126	0x3d7f0850	0.062263787
127	0x3c02149e	0.007939486
128	0x3ba9b217	0.0051787007
129	0x3cf66dc0	0.03008163
130	0x3dbc2bb2	0.09188022
131	0xbc8abf47	-0.016936911
132	0xba5f11c4	-0.0008509422
133	0xbc814e90	-0.015784532
134	0x3d826f8c	0.06368932
135	0x3d39c49a	0.04535351
136	0x3dd0491b	0.10170194
137	0x3d5f0f6d	0.05445807
138	0x3da1d5c3	0.079021
139	0x3cd06c87	0.025442375
140	0xbc44ffcf	-0.01202388
141	0xbceeb840	-0.029140592
142	0x3d286872	0.04111523
143	0x3d2c2e13	0.042036127
144	0xba9c14ca	-0.0011908051
145	0x3d64c3f7	0.05585095
146	0x3d67f9d3	0.056634735
147	0xb9cedbe3	-0.0003945521
148	0xbdaba9c7	-0.08381992
149	0x3c93a6e4	0.018023916
150	0xbd1ad9e2	-0.037805445
151	0x3deceb79	0.1156835
152	0x3cbb510d	0.022865796
153	0x3dc0f5ea	0.094219044
154	0xbd813e81	-0.0631075
155	0xbcd93934	-0.026516534
156	0xbc4ea798	-0.0126132
157	0x3d85090d	0.06495867
158	0xbb16d827	-0.002301702
159	0x3da25822	0.07926966
160	0xbd0557b4	-0.032554343
161	0x3e10576b	0.14095847
162	0xbd3f5704	-0.046713844
163	0xbc3d11be	-0.011539875
164	0xbd61779e	-0.055045716
165	0x3c8a5107	0.01688434
166	0x3d99a68d	0.0750247
167	0x3a26cc09	0.0006362801
168	0xbd9c4b47	-0.076315455
169	0x3badaf4d	0.0053004385
170	0x3d2f9525	0.042866845
171	0xbdd42dc9	-0.10360295
172	0x3e0125f4	0.12612134
173	0x3ddaaeb3	0.106778525
174	0x3d767b6f	0.06017631
175	0x3da5c388	0.08093935
176	0xbc612642	-0.0137420315
177	0x3bb37e12	0.0054776752
178	0x3d62954e	0.05531817
179	0xbba93787	-0.00516409
180	0xbbefa236	-0.007313038
181	0x3d7dd2b3	0.061968517
182	0xbd6bb2bf	-0.057543512
183	0x3ce6cb20	0.02817303
184	0xbc367088	-0.011135228
185	0xbd0209e6	-0.03174772
186	0x3da15e36	0.078792974
187	0xbcfb70f4	-0.030693509
188	0x3dc87b73	0.09789171
189	0x3cf83d7d	0.030302757
190	0x3d0500b8	0.03247139
191	0x3c9d4241	0.019196631
192	0xbccc697b	-0.02495264
193	0xbba2a0c4	-0.0049630124
194	0xbdc235f4	-0.09482947
195	0x3cad9e76	0.021193724
196	0xbbb55b2a	-0.0055345492
197	0x3d44ce6c	0.04804842
198	0x3d735bfe	0.059413902
199	0xbd650986	-0.055917285
200	0x3d94d210	0.07266629
201	0x3d1f4351	0.038882557
202	0x3cf9c571	0.030489655
203	0xbd8cf925	-0.06883458
204	0x3ce4b429	0.027917938
205	0x3c22b609	0.009931096
206	0x3d6bd181	0.057572845
207	0xbc66cd45	-0.014087026
208	0x3d9096d1	0.07060016
209	0x3cc1eb3a	0.023671735
210	0x3d65dd91	0.056119505
211	0xbd0661ca	-0.032808103
212	0xbca1d0ef	-0.019752948
213	0xbd0061d1	-0.031343285
214	0xbcfdc47b	-0.030977478
215	0x3c9b34b4	0.01894603
216	0xbc1ec48d	-0.009690416
217	0x3d7cc819	0.061714265
218	0x3d7cd214	0.061723784
219	0xbcd012a5	-0.025399515
220	0xbd1f683e	-0.038917772
221	0xbd78ae0a	-0.06071285
222	0x3b091696	0.0020918003
223	0x3d63d3e9	0.055622015
224	0xbd55fe9f	-0.05224478
225	0xbcf96f2a	-0.030448515
226	0xbcb1523b	-0.021645656
227	0xbd4aa02e	-0.049469166
228	0xbcf49748	-0.029857293
229	0xbc8bb657	-0.01705472
230	0x3d24f3af	0.040271457
231	0xbd10f011	-0.035385195
232	0x3cb6bf0d	0.022307897
233	0xbd86dffd	-0.06585691
234	0xbc2ef5ed	-0.01067875
235	0x3d90d491	0.07071794
236	0xbd8737e0	-0.06602454
237	0x3d9227bb	0.07136484
238	0xbd48f334	-0.04906006
239	0xbca68654	-0.020327725
240	0xbb7a6bf2	-0.0038211313
241	0x3d4ae6aa	0.049536385
242	0x3d855e7d	0.06512163
243	0xbbd7c295	-0.0065844753
244	0xbd8a1f5e	-0.06744264
245	0xbd661cca	-0.0561798
246	0x3d6dff8c	0.058105037
247	0xbd129e59	-0.035795543
248	0x3c74be6f	0.014937981
249	0xbd4bc201	-0.049745563
250	0xbc60dc00	-0.013724327
251	0x3d6f6720	0.058447957
252	0xbd0e3714	-0.034720495
253	0xbc948c3b	-0.018133273
254	0x3d7ad5f6	0.061239205
255	0xbd10ddb3	-0.03536768

fc2.bias f4 [100]
0	0x3c311dc2	0.0108103175
1	0x3c802e6c	0.015647136
2	0xba88a8dc	-0.00104263
3	0x3cd2b531	0.025721164
4	0x3d4e3af5	0.050349195
5	0xbd8a8468	-0.06763536
6	0x3c03994f	0.008032157
7	0x3d81c2f3	0.06336012
8	0x3d6272b3	0.055285167
9	0x3da108d8	0.07863015
10	0xbcca6e73	-0.02471087
11	0x3d8fa4c2	0.07013847
12	0x3d82d198	0.06387633
13	0x3cca8118	0.02471976
14	0x3dab3930	0.08360517
15	0x3d7b1b4c	0.06130533
16	0xbcb8b75b	-0.022548368
17	0xbd4f036c	-0.050540373
18	0x3d83b143	0.06430294
19	0xbd90da23	-0.07072856
20	0x3d95a1f5	0.073062815
21	0xbc9b9399	-0.018991278
22	0xbbcb364b	-0.0062015406
23	0xbd77c696	-0.06049212
24	0x3cf8d93b	0.030377021
25	0x3d6adc22	0.05733884
26	0x3d577f3f	0.052611586
27	0x3c49eb66	0.01232419
28	0xbbf3db08	-0.007441882
29	0xbd6c20e3	-0.05764855
30	0xbd47cff9	-0.048782323
31	0xbd0aa9d1	-0.033853356
32	0x3dab0aa8	0.08351642
33	0x3cdaac73	0.026693558
34	0x3d5c464e	0.053777985
35	0x3d143b26	0.03618922
36	0xbd861902	-0.065477386
37	0xbce74662	-0.028231803
38	0x3d77a40e	0.06045919
39	0x3d2b754f	0.04185992
40	0x3d52acb3	0.05143423
41	0x3dccd485	0.100014724
42	0x3d834d47	0.06411224
43	0xbc9fdf76	-0.019515734
44	0xbc8b3466	-0.016992759
45	0x3d18cbca	0.037303723
46	0x3c441f13	0.011970299
47	0xbcd26570	-0.025683135
48	0xbd2aaf2b	-0.04167096
49	0x3c32679f	0.010888963
50	0x3c3ece75	0.011645903
51	0x3daa1202	0.08304216
52	0x3c9113ed	0.017709697
53	0xbccb319f	-0.024803935
54	0x3cca5750	0.024699837
55	0x3d5bcd11	0.053662363
56	0xbd3c6bee	-0.046001367
57	0x3d1a428d	0.037661124
58	0xbd80392a	-0.06260903
59	0x3d80bb03	0.0628567
60	0x3b942719	0.0045212624
61	0x3cd386a8	0.025821045
62	0x3c6f5020	0.014606506
63	0x3d592c51	0.05302078
64	0xbd6deb5c	-0.058085784
65	0xbcbe87ca	-0.023258109
66	0x3c3212c0	0.010868728
67	0xbd8907f4	-0.0669097
68	0x3d4055ea	0.046956934
69	0x3c024413	0.0079508005
70	0x3d1b0918	0.03785047
71	0xbc72963c	-0.0148063265
72	0x3cd51aa3	0.026013678
73	0xbc6824ab	-0.014168899
74	0x3c9c79db	0.019101074
75	0xbd87920d	-0.06619654
76	0x3d8b1ecb	0.06792983
77	0x3d9e6907	0.07734876
78	0x3d892440	0.06696367
79	0xbd5964e4	-0.053074732
80	0x3d6101f8	0.05493352
81	0x3ca3551b	0.019938042
82	0xbd31f661	-0.043447856
83	0x3d6d3950	0.057915986
84	0xbd42e902	-0.047585495
85	0x3d0f1938	0.03493616
86	0x3d6416df	0.055685874
87	0xbcf06bff	-0.029348372
88	0xbd92d8ea	-0.07170279
89	0xbd126b51	-0.035746876
90	0x3c8e2d9a	0.017355729
91	0x3d21d4b8	0.039509505
92	0x3c054a27	0.008135355
93	0xbc235c46	-0.00997073
94	0xbd09553c	-0.03352855
95	0xbd87e25b	-0.06634971
96	0x3dc31e8e	0.09527312
97	0xbd5ced3d	-0.053937186
98	0x3d519b21	0.051173333
99	0x3d3b3bd2	0.045711346

fc3.weight f4 [10, 100]
0	0xbe4828b1	-0.19546773
1	0x3c886f64	0.016654678
2	0x3da5ad42	0.08089687
3	0xbe1a4e96	-0.1506904
4	0xbe2f461e	-0.17116591
5	0xbd808356	-0.0627505
6	0xbc3580a4	-0.011078034
7	0xbe8d336b	-0.2757829
8	0x3e56cb78	0.20976055
9	0x3e56c308	0.20972836
10	0xbdccdb1d	-0.1000273
11	0xbe2d0ece	-0.16900179
12	0xbdaf0536	-0.08545916
13	0x3e11f6f5	0.14254363
14	0x3ce1141b	0.027475407
15	0xbdf5aece	-0.11996232
16	0x3e3a7309	0.18207945
17	0xbd796a52	-0.06089241
18	0xbc824ede	-0.015906747
19	0x3ea8a529	0.32938507
20	0x3e367b36	0.17820439
21	0x3df935cb	0.12168463
22	0xbc95a5d1	-0.018267544
23	0x3d91f9c0	0.07127714
24	0x3e13f4ad	0.14448805
25	0xbd82e179	-0.06390662
26	0xbe355fd7	-0.17712341
27	0xbe10923e	-0.14118287
28	0x3ccbeb4e	0.024892475
29	0xbc98f821	-0.018673005
30	0xbe83f8a7	-0.25775644
31	0xbc16ce9f	-0.009204536
32	0xbe11116d	-0.14166804
33	0xbda3c3fe	-0.07996367
34	0x3df46f2e	0.11935268
35	0x3eaee90e	0.34162182
36	0xbe2087b0	-0.1567676
37	0xbe438c75	-0.19096549
38	0xbdd35e4d	-0.10320721
39	0xbc9053cf	-0.017618088
40	0x3ded219d	0.11578677
41	0xbdfcc815	-0.1234285
42	0xbe29821f	-0.16553544
43	0x3d96177a	0.073286965
44	0xbe41ac50	-0.18913388
45	0x3e87ceeb	0.26525053
46	0x3d9e288e	0.07722579
47	0xbe57d83a	-0.21078578
48	0xbdc5c32d	-0.096563675
49	0xbe4b2e29	-0.19841827
50	0x3dc0b35b	0.09409209
51	0xbe90f8c8	-0.28314805
52	0x3edb0c26	0.42782706
53	0xbd8ba847	-0.06819206
54	0xbd8241e8	-0.06360227
55	0xbe1fa4d5	-0.15590222
56	0x3d115486	0.035481
57	0x3e8e82bb	0.27834114
58	0x3c3cbf91	0.011520282
59	0x3da742bd	0.08167026
60	0x3dea1558	0.11429852
61	0x3da90883	0.082535766
62	0xbdb92847	-0.090408854
63	0x3d08407d	0.033264626
64	0xbe091b12	-0.13389233
65	0xbb6f1758	-0.003648242
66	0xbda79a0c	-0.08183679
67	0xbda399f4	-0.079883486
68	0x3e92d799	0.28680113
69	0x3e9ce65d	0.30644503
70	0x3d536cfc	0.051617607
71	0x3da1f559	0.079081245
72	0xbdf07f2f	-0.11743008
73	0x3d9ef7ed	0.07762132
74	0x3acb6f6f	0.0015520881
75	0x3da3669d	0.07978556
76	0x3db2c1a2	0.08728339
77	0xbd539f12	-0.051665373
78	0x3db954fc	0.090494126
79	0x3e8f4056	0.27978772
80	0x3e31a5f6	0.17348465
81	0xbe2aaf47	-0.16668426
82	0xbd9ac653	-0.075573586
83	0x3d24ed3f	0.040265318
84	0xbd2685e3	-0.040655028
85	0x3dc7a3c5	0.097480334
86	0xbcf3c8b9	-0.029758798
87	0x3ca48112	0.020081077
88	0xbe2148d8	-0.15750444
89	0xbc72efe4	-0.014827702
90	0x3d8de189	0.06927783
91	0x3db9876e	0.09059034
92	0xbdd5d692	-0.10441317
93	0xbe0c32cd	-0.13691254
94	0x3c2cf4ac	0.010556381
95	0x3e201ae8	0.15635264
96	0xbea55856	-0.32293957
97	0xbd4a2e98	-0.04936084
98	0xbea82755	-0.32842508
99	0xbe902333	-0.28151855
100	0xbdfd6c80	-0.1237421
101	0xbdf169b5	-0.1178774
102	0xbe283400	-0.16426086
103	0x3e3e914f	0.18610118
104	0x3e3e2de3	0.18572192
105	0xbb2c0b86	-0.0026251986
106	0xbe8f1b30	-0.2795043
107	0xbe8092cc	-0.25111997
108	0xbd92eafb	-0.07173725
109	0xbcff3f49	-0.031158106
110	0xbdb3e448	-0.087837756
111	0xbe92c8e1	-0.28668883
112	0x3ec5a951	0.3860574
113	0xbd35163f	-0.04421067
114	0x3e3ffb5a	0.18748227
115	0xbdd9257f	-0.10602855
116	0xbe3f51fc	-0.18683618
117	0xbc136e1f	-0.008998423
118	0x3e76b99f	0.24094246
119	0x3e1605b7	0.14650618
120	0xbe0dabf9	-0.13835134
121	0x3d8eb885	0.06968788
122	0x3e1da8b4	0.15396386
123	0xbd2d9119	-0.042374704
124	0xbe9d3f4e	-0.3071236
125	0x3e8f32af	0.27968356
126	0x3e180a50	0.14847684
127	0xbe1a931a	-0.15095177
128	0x3de5c9fa	0.112201646
129	0x3e28b9cc	0.16477126
130	0xbe122ba5	-0.14274462
131	0xbc6cc574	-0.014451373
132	0x3dffc367	0.12488442
133	0x3db494ea	0.088174656
134	0xbddd4dcc	-0.10805854
135	0x399252ad	0.00027908888
136	0xbdd4400c	-0.103637785
137	0xbe5c15ac	-0.21492642
138	0x3ecf6eaf	0.40514132
139	0x3e15c52b	0.14625995
140	0xbe857e04	-0.26072705
141	0x3ed73a52	0.42036682
142	0xbc8ce0cc	-0.017197035
143	0x3c5321d1	0.01288648
144	0x3ec3da49	0.38252476
145	0x3e45ebde	0.19328257
146	0x3da0a284	0.078434974
147	0x3e4999e5	0.19687612
148	0x3d1d188f	0.0383535
149	0xbcca5e70	-0.024703234
150	0xbd772810	-0.06034094
151	0x3dd2f6af	0.103009574
152	0xbe02059f	-0.12697457
153	0x3e0c705c	0.13714737
154	0xbe8c6598	-0.2742126
155	0xbe80bb64	-0.25142968
156	0xbd6ea4f7	-0.05826279
157	0xbde47c8e	-0.111565694
158	0x3df5601a	0.119812205
159	0x3e7b6fb7	0.24554335
160	0x3e18bfd4	0.14916927
161	0xbe8d5df4	-0.27610743
162	0xbe994abe	-0.29939836
163	0xbc07080b	-0.008241664
164	0x3daa34a9	0.083108254
165	0x3d0cb5c2	0.034353025
166	0xbe35008f	-0.17675994
167	0x3cb4cd45	0.022070536
168	0x3e0eba2e	0.1393821
169	0x3e35aef0	0.17742515
170	0xbe7732ba	-0.24140444
171	0x3d8d4c1e	0.06899284
172	0x3e567c45	0.20945843
173	0x3d90fd61	0.07079578
174	0xbcbe6017	-0.023239179
175	0xbdccbdae	-0.09997116
176	0xbe490ceb	-0.19633834
177	0x3eb49fb5	0.35278097
178	0x3c06f4f5	0.008237113
179	0x3df63eba	0.12023683
180	0xbea5f572	-0.32413822
181	0x3dc10151	0.09424079
182	0x3d8d146d	0.068886615
183	0xbe95850e	-0.29203075
184	0x3d6e8acf	0.058237847
185	0xbe2da867	-0.16958772
186	0x3ded2222	0.11578776
187	0xbd224304	-0.039614692
188	0x3d23032d	0.03979795
189	0x3e3e9579	0.18611707
190	0x3e3be19b	0.1834778
191	0x3df61d8f	0.120173566
192	0x3cae4170	0.021271437
193	0xbdd4253d	-0.10358665
194	0xbe812ce8	-0.25229573
195	0xbd4900fe	-0.04907321
196	0x3cec6a04	0.028859146
197	0xbdc08fae	-0.09402405
198	0x3e3b5574	0.18294317
199	0x3e09dce0	0.13463163
200	0xbe78fb30	-0.2431457
201	0x3d38e6bd	0.045141924
202	0xbd9d1924	-0.07670811
203	0xbd5e17c7	-0.054221895
204	0xbe1bb64d	-0.15206261
205	0x3d9de866	0.07710342
206	0x3e85e743	0.26153
207	0xbe8f3509	-0.2797015
208	0xbe3a03c3	-0.18165497
209	0xbdd2fe4e	-0.10302411
210	0xbd80df63	-0.06292608
211	0x3e35f6b1	0.17769887
212	0xbdff1e24	-0.12456921
213	0x3db8c025	0.09021024
214	0xbe6f6e15	-0.23381837
215	0x3db2d13a	0.08731313
216	0x3e76e83a	0.24112025
217	0x3e1a5d9e	0.15074775
218	0x3e67a127	0.22620068
219	0x3eab6c53	0.33481082
220	0x3d6e529f	0.058184262
221	0x3e92aef5	0.28649107
222	0x3eb9f105	0.36316696
223	0xbd9b0439	-0.07569165
224	0x3d066bd7	0.032817688
225	0xbe2d316a	-0.16913381
226	0xbca9ecb9	-0.020742761
227	0xbeb50ed1	-0.35362867
228	0x3d5fb091	0.054611746
229	0x3e7e4543	0.24831109
230	0x3dad5b90	0.0846473
231	0x3cf9726b	0.030450067
232	0xbe8ed6d7	-0.27898285
233	0x3a70a800	0.00091803074
234	0x3e62c8bd	0.22146888
235	0xbe263d6f	-0.16234373
236	0x3eaddbac	0.3395666
237	0x3c73e364	0.014885757
238	0xbe50b940	-0.20383167
239	0x3e3c0e65	0.18364866
240	0xbd5fd13f	-0.054642912
241	0xbe2327cb	-0.15933149
242	0xbdc2adba	-0.09505792
243	0x3d8c8726	0.06861715
244	0x3dc56bb5	0.09639684
245	0xbe2b1761	-0.16708137
246	0x3c0e6a61	0.008692355
247	0xbdc161a8	-0.094424546
248	0x3d1efccd	0.03881531
249	0x3e67cc97	0.22636639
250	0xbe3bad2b	-0.18327777
251	0xbe9d481f	-0.30719087
252	0xbdeb9107	-0.11502271
253	0xbe25b441	-0.16182043
254	0xbdd615e6	-0.104533955
255	0xbc8ced16	-0.017202895

fc3.bias f4 [10]
0	0xbd84e6ff	-0.064893715
1	0x3e2f3323	0.17109351
2	0xbda42778	-0.080153406
3	0xbde705c5	-0.11280397
4	0xbbcf68d5	-0.0063296356
5	0x3c0dff8b	0.008666883
6	0xbd184496	-0.037174784
7	0x3c3dcda6	0.011584675
8	0x3d654a14	0.05597885
9	0xbc6d6b7e	-0.01449096
