pytorch/mnist/savedModels/2021_12_24-15:49:16.pth (torch, 15375 bytes, 8 tensors)

conv1.weight f4 [8, 1, 5, 5]
0	0xbe4d7709	-0.2006494
1	0x3f216f04	0.6306002
2	0x3edaad1e	0.42710203
3	0xbd9366fb	-0.07197376
4	0xbe6b33fe	-0.22969052
5	0xbed619e0	-0.41816616
6	0xbe0cec25	-0.13761957
7	0xbfb4296c	-1.4075141
8	0xbf8d9a8b	-1.1062788
9	0xbf3372a9	-0.7009683
10	0xbefc2a41	-0.49250987
11	0xbf37a7f6	-0.71740663
12	0xbf50f20d	-0.8161934
13	0x3d32d7f9	0.043663
14	0x3f08927a	0.53348505
15	0x3e962fc8	0.2933333
16	0xbe49bef7	-0.19701754
17	0x3f151dd1	0.5824862
18	0x3f18f7d4	0.59753156
19	0x3f16beeb	0.5888507
20	0x3f31d8b5	0.69471294
21	0x3ece79ef	0.40327403
22	0x3f235fdf	0.6381816
23	0x3eafabc3	0.3431073
24	0xbd72571c	-0.059165105
25	0x3ed098b3	0.407415
26	0x3bfcdff9	0.0077171293
27	0xbf0914d4	-0.53547406
28	0xbe06b999	-0.13156737
29	0xbe928169	-0.28614357
30	0x3ea990e0	0.33118343
31	0x3deeda4b	0.1166273
32	0xbee02666	-0.43779296
33	0xbf814037	-1.0097722
34	0xbf6376bb	-0.88853043
35	0x3e9473cf	0.28994605
36	0x3f076ede	0.52903545
37	0xbe0ddbb2	-0.13853338
38	0xbf00546c	-0.5012882
39	0xbf506d62	-0.81416905
40	0x3e277c2e	0.16355965
41	0x3f039281	0.5139542
42	0x3d8896d9	0.06669397
43	0xbf46a95f	-0.7760219
44	0xbf67ac58	-0.9049735
45	0x3ea315b8	0.31852508
46	0x3f36a8de	0.7135142
47	0x3e3cad5d	0.18425508
48	0xbf074033	-0.52832335
49	0xbf63214a	-0.8872267
50	0xbeb464ce	-0.35233158
51	0x3dbb773f	0.09153604
52	0xbd6daffa	-0.058029152
53	0x3e1e73e8	0.15473902
54	0x3e93f640	0.2889881
55	0x3e2ec36f	0.1706674
56	0xbe3ca8b3	-0.18423729
57	0xbdee9b71	-0.11650742
58	0x3cbec9cd	0.023289585
59	0x3e95cd7b	0.29258332
60	0xbf0e3553	-0.55550116
61	0xbf7efe6d	-0.9960697
62	0xbd7b2681	-0.061316017
63	0x3f2a2c67	0.66474
64	0x3eae0fac	0.33996332
65	0xbf99a76d	-1.2004219
66	0xbe58afe6	-0.2116085
67	0x3f91aed5	1.138148
68	0x3f3530aa	0.7077738
69	0xbe74ce1f	-0.23906754
70	0x3e26a0d3	0.16272287
71	0x3e8e011d	0.27735224
72	0x3ec42a6f	0.38313624
73	0xbd94681e	-0.07246421
74	0xbf36d4da	-0.71418536
75	0xbdf82a07	-0.12117391
76	0x3f1e08e5	0.6173232
77	0x3f7d5567	0.9895844
78	0x3e1dfd93	0.15428762
79	0xbef69c65	-0.48166195
80	0xbf076670	-0.5289068
81	0xbf2a1c02	-0.66448987
82	0x3e51dd90	0.20494676
83	0x3f903454	1.1265969
84	0x3f1dbc51	0.61615473
85	0xbe9b8eb7	-0.3038232
86	0xbfb1ec87	-1.3900307
87	0xbef87782	-0.48528677
88	0x3edeffad	0.4355444
89	0x3efd2d8f	0.4944882
90	0x3f2a2f6d	0.66478616
91	0xbf74a715	-0.95567447
92	0xbf8641d9	-1.0488845
93	0xbf373f44	-0.7158091
94	0x3f101e59	0.56296307
95	0x3f8911d5	1.0708567
96	0x3e99e35b	0.3005627
97	0xbe4e5fdf	-0.2015376
98	0xbf3abae6	-0.72941434
99	0xbeee34ef	-0.4652476
100	0x3e8d9249	0.2765067
101	0x3ecdbe55	0.40184274
102	0x3e387d9e	0.18016669
103	0x3eadc8db	0.33942303
104	0xbf086b72	-0.5328895
105	0x3f6c4c0c	0.9230354
106	0x3f6003e2	0.87505925
107	0x3ebf6ca5	0.37387577
108	0x3e2d31dd	0.16913553
109	0xbf017c17	-0.5057997
110	0xbea04eef	-0.31310222
111	0x3e051ffe	0.13000485
112	0x3f27d91a	0.65565646
113	0x3ea4b86e	0.3217196
114	0x3e001d0d	0.12511082
115	0xbf7182b9	-0.9434009
116	0xbf3bab5f	-0.73308367
117	0xbed928fd	-0.42414084
118	0xbed0670c	-0.4070362
119	0xbeea79f5	-0.4579617
120	0xbe3a0cfe	-0.18169019
121	0xbf2969b7	-0.66176933
122	0xbf7cb486	-0.98712957
123	0xbf66ced5	-0.9015935
124	0xbf6cc2f9	-0.92485005
125	0xbeb939fd	-0.36177054
126	0x3eac9e11	0.33714345
127	0x3f2dc77d	0.6788252
128	0x3ddff66d	0.10935674
129	0xbec6078d	-0.38677636
130	0xbef97f50	-0.48729944
131	0xbd7dff68	-0.062011153
132	0x3f923434	1.1422181
133	0xbcc6b45c	-0.024255924
134	0xbf3564c2	-0.7085687
135	0xbf4cdc2f	-0.80023474
136	0x3f21e591	0.63240916
137	0x3f8757c4	1.0573659
138	0xbc86fb2c	-0.01647719
139	0xbf9ae8ae	-1.2102258
140	0xbe4e6abd	-0.20157905
141	0x3f4525ef	0.7701101
142	0x3e51aee3	0.2047687
143	0xbea594cf	-0.32340094
144	0xbf06b413	-0.5261852
145	0x3f14c09e	0.5810641
146	0x3dcb03e7	0.09912854
147	0x3d21af48	0.0394738
148	0xbd117a94	-0.03551729
149	0xbe8359d2	-0.25654465
150	0x3d1fc30c	0.03900437
151	0xbc3b682d	-0.011438412
152	0x3e4cc4f3	0.19997005
153	0x3f70f554	0.9412434
154	0x3f24bfde	0.64355266
155	0x3f06b042	0.526127
156	0x3f0295aa	0.5100962
157	0xbe61f8df	-0.22067593
158	0x3e2b6a4a	0.16739765
159	0xbf2ebf9e	-0.68261135
160	0x3eeeb2ce	0.46620792
161	0x3d661f0b	0.05618195
162	0x3e07a47b	0.13246338
163	0xbc79cd48	-0.015246697
164	0x3df42191	0.11920465
165	0x3e591962	0.21201089
166	0xbe7add44	-0.24498469
167	0x3e7100e8	0.23535502
168	0xbe7a8f7d	-0.24468799
169	0xbf38f5b7	-0.7224993
170	0xbd83709d	-0.06417964
171	0x3e2c5d7a	0.16832533
172	0xbede60b0	-0.43433142
173	0xbef72a82	-0.48274618
174	0xbdbb521f	-0.09146523
175	0x3ee2b4ed	0.4427866
176	0x3de972c4	0.11398843
177	0x3deb02b2	0.114751235
178	0xbe0b498b	-0.13602273
179	0x3c8869eb	0.016652068
180	0x3e8e7170	0.2782092
181	0x3eb1f495	0.34756914
182	0xbcacb44e	-0.02108207
183	0xbd4b94f6	-0.049702607
184	0xbe9d3ae9	-0.30709007
185	0xbd597830	-0.053093135
186	0x3dde6489	0.10859019
187	0x3deb6048	0.114929736
188	0x3f133559	0.5750328
189	0x3e866124	0.26245987
190	0x3dbf1738	0.093306005
191	0x3eef64f4	0.4675671
192	0x3e7e3e6e	0.24828503
193	0x3f31856b	0.69344205
194	0x3e693429	0.22773804
195	0xbe511a3b	-0.20420162
196	0x3ea6d4ba	0.32584172
197	0xbf1b1a09	-0.605866
198	0xbe144fab	-0.14483516
199	0x3f045ee5	0.517073

conv1.bias f4 [8]
0	0xbc31bcfe	-0.010848282
1	0x3f4c3c8d	0.79779893
2	0xbe4a4c2b	-0.19755618
3	0x3df3df44	0.11907819
4	0x3d3be2b0	0.045870483
5	0xbf5378d6	-0.82606256
6	0xbcc1ee86	-0.023673307
7	0xbc85de48	-0.016341344

conv2.weight f4 [10, 8, 5, 5]
0	0x3d97e7cd	0.07417259
1	0xbc277623	-0.010221037
2	0xbcc048f9	-0.023472296
3	0x3eb657da	0.356139
4	0xbdcbb1bc	-0.099460095
5	0x3d1b476a	0.037909903
6	0x3de11b3d	0.109915234
7	0xbe307b14	-0.1723445
8	0x3d0afae4	0.033930674
9	0x3a44efc4	0.00075125345
10	0x3d636b77	0.05552241
11	0xbdbf484f	-0.09339964
12	0xbeb18e9b	-0.34679112
13	0xbeccf01c	-0.4002694
14	0x3dbeb8e7	0.09312611
15	0xbeb5a522	-0.3547755
16	0xbec7730e	-0.38954967
17	0xbebfd739	-0.3746889
18	0xbedd5b8e	-0.43233913
19	0xbed15eaf	-0.4089255
20	0x3de66995	0.11250607
21	0x3e70b9d6	0.23508391
22	0x3eb6d750	0.35711145
23	0x3d738159	0.059449527
24	0xbc820881	-0.015873196
25	0xbe3503ab	-0.1767718
26	0x3cecd97c	0.028912298
27	0xbf0c6222	-0.5483724
28	0xbe72ceb4	-0.23711663
29	0xbe2a7e25	-0.16649683
30	0xbd8db8cc	-0.06920013
31	0x3e72d378	0.23713481
32	0xbc8d666b	-0.01726075
33	0x3dbae8ba	0.0912642
34	0x3f099c55	0.5375417
35	0x3df8e9dc	0.1215398
36	0xbdfcb4f1	-0.12339199
37	0x3f2638c6	0.6493038
38	0x3ee539df	0.44770715
39	0x3f1c1d63	0.6098234
40	0x3d9ca89a	0.07649346
41	0xbeb982dd	-0.36232653
42	0x3e0b427a	0.13599578
43	0x3c9b1149	0.01892914
44	0x3e514208	0.20435345
45	0xbf1b411c	-0.60646224
46	0xbe90ff1a	-0.28319627
47	0xbe51d635	-0.2049187
48	0x3e57700f	0.2103884
49	0xbef9e5ef	-0.48808238
50	0xbdb38e7f	-0.08767413
51	0xbe81813d	-0.25293913
52	0xbee757d5	-0.45184198
53	0xbe3ca677	-0.18422876
54	0xbe245022	-0.16046193
55	0xbda99a4c	-0.08281383
56	0x3db923c3	0.09040024
57	0xbdc10a11	-0.09425748
58	0x3cc88834	0.02447901
59	0xbecb8141	-0.3974705
60	0x3e25e8ed	0.16202135
61	0x3e0efd1d	0.13963743
62	0x3eb1a3a9	0.34695175
63	0x3d544a0d	0.051828433
64	0xbcc85751	-0.024455698
65	0x3cd34147	0.025787963
66	0x3dd6c6c6	0.10487132
67	0x3f0bff20	0.54686165
68	0x3dae40fa	0.08508487
69	0x3e32d8b1	0.17465474
70	0x3dfcc100	0.12341499
71	0xbe0b7932	-0.13620451
72	0x3f02e1eb	0.51125973
73	0x3e75b90b	0.2399637
74	0xbd888bb5	-0.06667272
75	0xbdb37593	-0.0876266
76	0xbec3e1ba	-0.38258153
77	0x3e02fcff	0.12791823
78	0xbe014267	-0.12622987
79	0xbdde8abb	-0.108663045
80	0xbe775368	-0.2415291
81	0xbc3bcf43	-0.011462989
82	0x3f442ba4	0.7662909
83	0x3eb53e55	0.35399118
84	0x3d988897	0.074479274
85	0x3dc43ab9	0.09581513
86	0x3e8538af	0.2601981
87	0x3edb646b	0.4285005
88	0x3ef4f332	0.47841793
89	0x3f21b0b2	0.6316024
90	0xbd6c2288	-0.05765012
91	0x3db5a1ef	0.08868777
92	0xbdedc91d	-0.11610625
93	0x3e027aa9	0.12742104
94	0xbe3ec21e	-0.18628737
95	0xbe288ebe	-0.16460702
96	0xbe6e4d1f	-0.23271607
97	0xbf3e1358	-0.74248266
98	0xbf0f045f	-0.55866045
99	0xbe893f82	-0.26806265
100	0x3d88f7b0	0.06687868
101	0x3d309602	0.04311181
102	0xbe044a1e	-0.12918898
103	0x3c7db7ba	0.015485698
104	0x3e86a340	0.26296425
105	0xbdcbd6f4	-0.099531084
106	0xbe07a0a4	-0.13244873
107	0xbc4049d0	-0.011736348
108	0xbe6992b7	-0.22809874
109	0xbe18a8fb	-0.14908211
110	0xbea3d61a	-0.31999284
111	0x3cfcbcf8	0.030851826
112	0x3d482094	0.048859194
113	0xbe5664f3	-0.20936947
114	0xbd906d3f	-0.07052087
115	0xbeb88a08	-0.3604281
116	0x3c8c6ccb	0.01714172
117	0xbec6fcf6	-0.3886487
118	0xbeadf996	-0.3397948
119	0x3d513411	0.051075045
120	0xbd70f99b	-0.058831792
121	0x3e7ce0ef	0.2469518
122	0x3e59bb47	0.21262847
123	0x3d628644	0.055303827
124	0x3c02470b	0.007951508
125	0x3e082fee	0.13299534
126	0xbe7c0a01	-0.24613191
127	0xbaea5864	-0.0017879126
128	0xbe9a770b	-0.30168948
129	0xbece8d60	-0.40342236
130	0x3c9d9ce4	0.01923985
131	0xbd2e6fbb	-0.042587023
132	0xbd884871	-0.06654442
133	0xbf12f54f	-0.5740556
134	0xbee4fb02	-0.44722754
135	0x3e83fd7b	0.25779328
136	0xbbbbee28	-0.0057351775
137	0x3e582527	0.21107922
138	0x3e6d4317	0.23170124
139	0xbd66047e	-0.056156628
140	0x3ea3ad22	0.31968027
141	0x3c4d4693	0.012529033
142	0x3e4895fe	0.19588467
143	0x3f00c0ae	0.50294006
144	0x3e8b7580	0.27238083
145	0xbec1569d	-0.37761393
146	0x3e2d3b45	0.16917141
147	0x3d174f0a	0.036940612
148	0x3d30cc0f	0.043163355
149	0x3ea66459	0.32498434
150	0xbe5ade1b	-0.21373789
151	0xbe975d9a	-0.295636
152	0x3dae13ff	0.08499908
153	0x3d7b3a16	0.061334692
154	0x3e7121ad	0.23548003
155	0xbe3b7f90	-0.1831038
156	0xbc3db2a4	-0.011578236
157	0x3d8b8038	0.06811565
158	0x3ea00ebe	0.31261247
159	0xbbfe3793	-0.00775809
160	0x3e07dbed	0.13267489
161	0x3e3d4188	0.1848203
162	0xbe0c224d	-0.1368496
163	0xbc18b856	-0.009321293
164	0xbf18d609	-0.5970159
165	0xbd17355d	-0.036916126
166	0xbe3fceba	-0.18731204
167	0x3e2123b3	0.15736274
168	0xbe87a974	-0.2649647
169	0xbe961af4	-0.2931744
170	0xbd935af6	-0.07195084
171	0x3f1b6d82	0.6071397
172	0x3ee5ef0c	0.4490894
173	0xbccb2e0d	-0.024802232
174	0xbe070b24	-0.13187844
175	0xbeb76b03	-0.3582383
176	0xbebe686b	-0.3718904
177	0xbeb675b0	-0.35636663
178	0xbf138c53	-0.5763599
179	0xbf6b05fa	-0.91805995
180	0x3e64e409	0.22352614
181	0x3f447fc9	0.76757485
182	0x3e2e5ba6	0.17027149
183	0x3dfc66b0	0.123242736
184	0xbe6ed0f9	-0.23321904
185	0x3f37e5bf	0.7183494
186	0xbd2cd59a	-0.042195894
187	0x3e3e8ee1	0.18609191
188	0xbdabbc7b	-0.08385559
189	0x3d343709	0.043997798
190	0xbd9fc592	-0.078013554
191	0xbddc24f9	-0.107492395
192	0xbe811a58	-0.2521541
193	0x3d15c894	0.03656824
194	0x3e324998	0.17410886
195	0x3ec1f5df	0.37882897
196	0xbda4b56c	-0.08042416
197	0x3e2c4fdb	0.16827337
198	0x3dd69909	0.10478408
199	0x3ef41d74	0.4767872
200	0xbeb34384	-0.35012448
201	0x3e6de0b3	0.23230247
202	0x3a850125	0.0010147436
203	0x3d637ff5	0.05554195
204	0x3cb328b0	0.021869987
205	0xbd9e4934	-0.07728806
206	0xbe936a8d	-0.2879223
207	0xbd95f39f	-0.07321858
208	0xbdd64882	-0.104630485
209	0x3d413053	0.047165226
210	0x3d3edbd2	0.046596356
211	0xbf1a87dd	-0.6036356
212	0xbf25e348	-0.6479993
213	0x3d18e715	0.037329752
214	0xbddd1dc3	-0.10796692
215	0x3f05c033	0.522464
216	0x3dece092	0.11566271
217	0x3e2580ff	0.1616249
218	0x3e78ac59	0.24284495
219	0xbe8834a5	-0.26602665
220	0x3eab778a	0.3348964
221	0x3e7efc8a	0.24901024
222	0x3f185b88	0.59514666
223	0x3ee84785	0.45367065
224	0x3f34a1ba	0.70559275
225	0xbeb56a5c	-0.35432708
226	0x3eb40f7f	0.35168073
227	0x3e1b81e6	0.15186271
228	0xbdd80bb1	-0.10549105
229	0x3d03c99e	0.0321747
230	0x3dfd4404	0.123664886
231	0x3e906743	0.28203782
232	0x3e1f97d7	0.15585266
233	0x3f158133	0.5840027
234	0xbd1b4819	-0.037910555
235	0xbd8b1b4f	-0.06792318
236	0x3eb33cd7	0.35007355
237	0xbd92f278	-0.071751535
238	0x3ae77747	0.0017659449
239	0xbdb8337c	-0.08994195
240	0xbe7c0ca0	-0.24614191
241	0x3d8b57c0	0.06803846
242	0xbf2343de	-0.6377543
243	0xbe807d97	-0.25095817
244	0xbcb92584	-0.022600897
245	0xbd6a05aa	-0.057134308
246	0x3ef6f05e	0.4823026
247	0x3e347e16	0.17626223
248	0x3ed7a039	0.42114428
249	0x3eb96d8e	0.36216396
250	0x3e589b57	0.21153007
251	0xbc85af22	-0.016318861
252	0x3eb42ddf	0.35191247
253	0xbd79d0c6	-0.060990117
254	0x3e94ea45	0.29084983
255	0x3e695d45	0.22789486

conv2.bias f4 [10]
0	0x3da4517d	0.08023355
1	0x3e673453	0.22578554
2	0x3e6592dd	0.22419305
3	0x3e2e99ae	0.17050812
4	0xbeb0af0b	-0.34508547
5	0xbf0de128	-0.55421686
6	0x3dc2fd4b	0.09520968
7	0xbf077221	-0.5290852
8	0xbe979044	-0.29602253
9	0x3e80c42c	0.25149667

fc1.weight f4 [20, 40]
0	0xbe8db5dd	-0.27677813
1	0x3dd589e3	0.104266904
2	0xbc6b141c	-0.014348056
3	0xbaacf709	-0.0013196181
4	0x3d64253a	0.055699565
5	0x3e84ba59	0.25923422
6	0x3f44b297	0.76835006
7	0xbf1d25c5	-0.61385757
8	0x3e2bdf41	0.16784383
9	0x3e5f1c18	0.2178806
10	0xbe3d9988	-0.18515599
11	0xbe85a3e1	-0.26101592
12	0x3eae6111	0.3405843
13	0x3f1734ee	0.5906514
14	0x3f2f0af3	0.6837608
15	0x3e23484d	0.1594555
16	0x3ecc9abc	0.39961803
17	0xbcb2a3d1	-0.02180663
18	0x3e9a3d3e	0.3012485
19	0x3e0762cc	0.13221282
20	0x3f0ccac0	0.5499687
21	0xbe348ab3	-0.17631035
22	0xbe12c871	-0.14334275
23	0xbec607d8	-0.3867786
24	0x3f3cd10c	0.7375648
25	0x3ec0a311	0.3762441
26	0x3c28b9d5	0.010298212
27	0x3ef03156	0.4691264
28	0x3efec860	0.4976225
29	0x3ed877a8	0.4227879
30	0xbeaf06fc	-0.34185016
31	0x3eb94cbc	0.36191356
32	0xbf1d1730	-0.61363506
33	0xbe329e13	-0.17443113
34	0xbf1efabb	-0.62101334
35	0x3edb3801	0.42816165
36	0xbf52b16b	-0.8230197
37	0xbe8fefc6	-0.2811262
38	0xbeff38dc	-0.49848068
39	0xbcddf1bf	-0.027092813
40	0xbc5dbf84	-0.01353443
41	0x3eb2a04c	0.34887922
42	0xbe73871c	-0.23782009
43	0xbe711c14	-0.23545867
44	0x3e895a4a	0.26826698
45	0xbe2d99a3	-0.16953139
46	0xbf3d6e4d	-0.7399643
47	0x3e7bf405	0.24604805
48	0xbe4fb1bb	-0.20282643
49	0xbea561b6	-0.3230111
50	0x3de2644b	0.110542856
51	0x3e43f385	0.19135864
52	0x3ee315c3	0.4435254
53	0x3e22337e	0.15839955
54	0xbdbf24c4	-0.09333184
55	0x3f287e95	0.6581815
56	0x3e443094	0.19159156
57	0x3ef7791d	0.4833459
58	0xbf4ab9ca	-0.7918974
59	0xbca0355a	-0.01955669
60	0xbe41a5d2	-0.18910912
61	0xbf062f00	-0.52415466
62	0x3f983949	1.1892482
63	0x3fa6e665	1.3039061
64	0x3ed52a66	0.4163391
65	0xbe6f5096	-0.23370585
66	0x3ed0f740	0.40813637
67	0xbc5e55e6	-0.0135702845
68	0xbd5a6d3e	-0.053326838
69	0xbe36b6d9	-0.17843188
70	0xbef2506b	-0.4732698
71	0xbe7fcf6c	-0.24981469
72	0x3f06469a	0.5245148
73	0xbea0c6cc	-0.3140167
74	0x3c371f14	0.011176843
75	0xbf147df6	-0.580047
76	0xbf74d853	-0.95642585
77	0x3f318af9	0.6935268
78	0x3ebde1a9	0.37086228
79	0x3e628225	0.22119959
80	0x3d100795	0.03516348
81	0xbaa3a24d	-0.0012484282
82	0x3e3e18de	0.18564174
83	0x3f49a6cf	0.78770155
84	0x3d3f39a1	0.04668582
85	0x3f14514f	0.5793657
86	0x3e59ed0f	0.21281837
87	0xbec606e9	-0.38677147
88	0x3e0d0998	0.13773191
89	0x3c4a73d4	0.012356717
90	0xbe051bd7	-0.12998901
91	0xbe6a9ffc	-0.22912592
92	0x3e6e6ddd	0.23284097
93	0x3e4f511a	0.20245782
94	0x3e8f2a9f	0.27962205
95	0x3f35860e	0.70907676
96	0xbe5fc561	-0.21852638
97	0x3eb1d6c4	0.34734166
98	0xbec5c46b	-0.38626418
99	0x3e3a1f0b	0.18175904
100	0x3a0a8d46	0.00052853336
101	0xbe0f9adc	-0.14023918
102	0x3f3a0658	0.7266593
103	0x3db2345e	0.087013945
104	0xbe95f2ac	-0.29286706
105	0x3f5f40c7	0.8720822
106	0xbf4b7ee3	-0.7949049
107	0x3ec2d711	0.38054708
108	0xbdf7f7ea	-0.12107833
109	0x3c85d9e6	0.016339254
110	0xbe2294f6	-0.15877137
111	0x3f1f6189	0.622582
112	0x3d5e828d	0.05432372
113	0xbe3ad8e4	-0.182468
114	0x3d90a775	0.0706319
115	0xbf4845f8	-0.78231764
116	0xbc4647f8	-0.01210212
117	0x3e3498dc	0.17636436
118	0x3cb5e082	0.02220178
119	0xbe11b22c	-0.14228123
120	0x3efb2217	0.49049446
121	0x3d663c5e	0.056209914
122	0x3c75055f	0.014954894
123	0xbe0da094	-0.13830787
124	0xbd80acac	-0.062829345
125	0x3e860071	0.26172212
126	0x3f25fd01	0.6483918
127	0xbc200245	-0.009766166
128	0xbe878bbf	-0.26473805
129	0x3d43dca8	0.047817856
130	0x3e1c3cc5	0.15257557
131	0x3f9b268f	1.2121142
132	0x3ecf57ce	0.40496677
133	0xbc6fed65	-0.014644002
134	0x3f2d4b56	0.6769308
135	0xbe2cf5cc	-0.16890639
136	0x3e938dd1	0.28819135
137	0xbe5aef6d	-0.21380396
138	0x3e0bb7ad	0.13644286
139	0x3e000522	0.12501958
140	0xbe09d238	-0.13459098
141	0xbece9ac0	-0.4035244
142	0xbe596268	-0.21228945
143	0xbe19cfd7	-0.15020691
144	0xbedb3522	-0.42813975
145	0x3dd19ba7	0.102347665
146	0x3f83dfd2	1.030268
147	0xbf37c75a	-0.7178856
148	0x3e81918e	0.25306362
149	0xbe846eb7	-0.2586572
150	0xbefd415b	-0.49463925
151	0x3df82652	0.12116684
152	0x3de53cd7	0.11193245
153	0xbce39e1c	-0.027785353
154	0x3e4acc31	0.19804455
155	0x3eac4362	0.3364516
156	0xbf107e92	-0.5644313
157	0x3e5c8542	0.21535209
158	0xbf1172cc	-0.5681579
159	0x3f1ef9ab	0.62099713
160	0x3d387fd2	0.045043774
161	0xbd6e3c93	-0.058163237
162	0xbdf8f92f	-0.12156903
163	0x3e0e3a2d	0.1388938
164	0xbd4f72c6	-0.050646566
165	0xbd950c5f	-0.0727775
166	0x3dca3c9d	0.09874842
167	0xbe00193e	-0.12509629
168	0xbd9b1423	-0.075722
169	0x3a0a6f4b	0.0005280866
170	0xbe10623b	-0.14099972
171	0xbd7556ba	-0.059897162
172	0xbe0a31ac	-0.13495511
173	0xbc72bd68	-0.014815666
174	0x3dcc36c3	0.099713825
175	0xbdf969a7	-0.12178355
176	0xbd615ea9	-0.055021916
177	0x3d76ee20	0.060285687
178	0x3dc62f49	0.09676988
179	0x3d50dc58	0.050991386
180	0x3c3643bb	0.011124547
181	0xbdc8d8c9	-0.098069735
182	0x3d42a8a2	0.047524102
183	0x3dce9005	0.10086063
184	0xbd8490f7	-0.06472962
185	0xbe0fb0b6	-0.14032254
186	0xbe241eda	-0.16027394
187	0x3d8e0b92	0.069358006
188	0xbdea4919	-0.114397235
189	0xbd63c9a0	-0.055612206
190	0xbe19f9c0	-0.15036678
191	0x3dfa81f7	0.1223182
192	0xbe159780	-0.14608574
193	0xbdcc529f	-0.09976696
194	0xbd337669	-0.043814097
195	0xbdcb3cf3	-0.099237345
196	0xbe0b5c8c	-0.13609523
197	0x3e231df2	0.15929392
198	0x3baa89f8	0.0052044354
199	0xbd55c0b9	-0.052185748
200	0xbe70677c	-0.23476976
201	0x3e41fb9d	0.18943639
202	0xbe11ced7	-0.1423906
203	0x3fac8953	1.3479408
204	0xbd7f77e3	-0.062370192
205	0xbdc465d7	-0.09589737
206	0x3d9646d7	0.073377304
207	0xbc2d2638	-0.010568194
208	0xbe833428	-0.2562573
209	0xbca009c2	-0.019535903
210	0xbf12bdbc	-0.5732076
211	0xbf44946c	-0.76788974
212	0x3df8d20b	0.121494375
213	0xbe8adca2	-0.27121454
214	0xbe8e35a7	-0.27775308
215	0x3ea3cf52	0.3199411
216	0x3f86a9d2	1.0520575
217	0xbe0947fa	-0.13406363
218	0xbcdc89a5	-0.026921103
219	0xbe66f0ea	-0.22552839
220	0xbd7fcb2f	-0.06244963
221	0x3e8b4da2	0.27207667
222	0x3eded81a	0.43524247
223	0xbedb6940	-0.42853737
224	0xbd0b2342	-0.03396917
225	0x3ed76239	0.42067125
226	0x3e9b72fb	0.3036116
227	0x3ea058e4	0.31317818
228	0x3d8ad174	0.06778231
229	0x3f0d60c3	0.5522577
230	0xbdb8c10d	-0.090211965
231	0xbdddea4a	-0.10835703
232	0xbf58af78	-0.84642744
233	0xbe34b597	-0.17647396
234	0x3ca81e14	0.020522155
235	0xbf0ccdaa	-0.5500132
236	0x3f0ae868	0.54260874
237	0xbed71670	-0.42009306
238	0xbee4d484	-0.44693387
239	0x3fa7427f	1.3067168
240	0x3ec4cc31	0.38437036
241	0x3d7b48d0	0.061348736
242	0x3dce9d7d	0.10088632
243	0x3e6104fa	0.21974555
244	0x3ec426f5	0.38310972
245	0x3e94f89e	0.2909593
246	0xbecd3d4e	-0.40085834
247	0x3ca469b7	0.02006994
248	0x3e1dd784	0.15414244
249	0x3e9e646f	0.30936
250	0xbe8bb46b	-0.27286085
251	0xbb31662e	-0.002706896
252	0x3ed6c7a1	0.4194918
253	0xbbf06719	-0.007336509
254	0xbed8e02e	-0.42358536
255	0xbe7e9d41	-0.24864675

fc1.bias f4 [20]
0	0xbe0e022c	-0.13868016
1	0x3e2098f1	0.15683343
2	0x3d8c1089	0.06839091
3	0xbd2c5bff	-0.04207992
4	0xbba98052	-0.0051727677
5	0xbe76e8e0	-0.24112272
6	0xbcfa289c	-0.030536942
7	0xbd07f9ae	-0.033197097
8	0x3d4439c0	0.047906637
9	0x3d94d68c	0.07267484
10	0x3e653733	0.22384338
11	0x3e806b53	0.25081882
12	0x3ce6cbb3	0.028173303
13	0xbe29219a	-0.16516724
14	0x3dead8fc	0.11467168
15	0xbcb7aa43	-0.022420054
16	0xbd57051e	-0.052495115
17	0x3dd3384e	0.10313474
18	0x3c9bb1e6	0.019005727
19	0xbc3819b7	-0.0112366

fc2.weight f4 [10, 20]
0	0xbdca7cb9	-0.0988707
1	0x3df39b35	0.11894838
2	0x3f44f00d	0.7692879
3	0xbfa055b5	-1.2526156
4	0x3d8e9f7d	0.06964014
5	0xbf3c450c	-0.7354286
6	0x3ea01932	0.31269222
7	0xbe2f0f0f	-0.17095588
8	0xbf37bb5a	-0.7177025
9	0x3f001530	0.5003233
10	0x3e35633e	0.17713639
11	0xbec36bd3	-0.381682
12	0x3d9d3f28	0.07678062
13	0x3f858e25	1.0434004
14	0x3d5dc2ff	0.05414104
15	0xbf29268a	-0.6607443
16	0xbe9f7eff	-0.31151578
17	0x3e11a8cf	0.14224552
18	0xbf2a80fe	-0.66603076
19	0xbdc8396c	-0.09776577
20	0xbe0952b4	-0.13410455
21	0xbdd7167f	-0.10502338
22	0x3e14e1db	0.14539282
23	0xbe4b8fe5	-0.1987911
24	0xbdf6c759	-0.12049741
25	0xbdf12337	-0.11774295
26	0xbdccb7c2	-0.099959865
27	0xbdc2a27c	-0.09503648
28	0x3e28a559	0.16469325
29	0x3cea3c4c	0.028593205
30	0xbe618bc1	-0.22025968
31	0xbcdb77ad	-0.026790464
32	0xbd85260c	-0.065013975
33	0xbe308c68	-0.1724106
34	0xbc745374	-0.014912475
35	0xbe22c7e0	-0.15896559
36	0xbe13520d	-0.14386769
37	0xbe3a1bd8	-0.18174684
38	0x3e01b8a6	0.12668094
39	0xbc6c0682	-0.014405848
40	0xbe2f358b	-0.17110269
41	0x3f912436	1.1339176
42	0x3eaa2bfa	0.33236676
43	0xbd9aa334	-0.0755066
44	0xbe4eef69	-0.20208515
45	0x3d632150	0.05545169
46	0x3f77140a	0.9651495
47	0xbdae5896	-0.0851299
48	0xbeae19bb	-0.34004006
49	0x3ea763c5	0.32693306
50	0xbfc9a391	-1.5753042
51	0x3d47e16a	0.048798956
52	0xbd9390b7	-0.072053365
53	0xbf8870a1	-1.0659372
54	0x3ebe4eba	0.3716944
55	0xbf1eda79	-0.6205211
56	0xbcd0a263	-0.025468057
57	0xbf864362	-1.0489314
58	0xbe12f41c	-0.14350933
59	0xbebb8db5	-0.3663155
60	0x3f354a5d	0.70816594
61	0xbe6ad454	-0.22932559
62	0x3f4cb7a6	0.79967725
63	0xbd3d1aed	-0.046168257
64	0xbe337d5e	-0.17528293
65	0x3f5777a5	0.8416694
66	0x3e83f5fe	0.25773615
67	0x3cfc341d	0.030786568
68	0xbf4068c0	-0.75159836
69	0xbdca3d49	-0.098749705
70	0xbed8f0ee	-0.42371315
71	0xbf416a21	-0.75552565
72	0xbedf62f2	-0.43630177
73	0xbe4a1278	-0.19733608
74	0xbf4d98ba	-0.8031117
75	0x3f07cfd7	0.53051513
76	0x3d69ddd9	0.057096336
77	0xbf0e53b2	-0.5559646
78	0x3f672b33	0.9030029
79	0xbf5d5ba2	-0.86467946
80	0xbf185b62	-0.5951444
81	0x3f02e345	0.51128036
82	0xbf6dbe92	-0.9286891
83	0x3bc43e14	0.0059888456
84	0x3cf48154	0.029846825
85	0x3d04701c	0.03233348
86	0x3f9ad66f	1.209669
87	0x3dcbaaa9	0.0994466
88	0x3e3410e4	0.17584568
89	0xbfaf3a16	-1.3689601
90	0xbe1ff8c2	-0.15622237
91	0x3f246117	0.6421065
92	0xbf4c0f8d	-0.7971123
93	0xbddb1a50	-0.10698378
94	0x3ece402b	0.4028333
95	0x3ef78380	0.48342514
96	0xbf8d17f6	-1.1022937
97	0xbf8544d7	-1.0411633
98	0xbdf3de8a	-0.1190768
99	0x3dcead38	0.100916326
100	0xbedf8352	-0.43654877
101	0xbe43fc87	-0.191393
102	0x3f724275	0.94632655
103	0x3e98aa1b	0.2981728
104	0xbe5650a1	-0.20929195
105	0x3e55d3fc	0.20881647
106	0xbe5f6a5a	-0.21817914
107	0x3d93510c	0.07193193
108	0x3e6f1861	0.23349144
109	0x3e188e6b	0.14898078
110	0x3ea6a53a	0.32547933
111	0xbef54d10	-0.47910357
112	0xbf997656	-1.1989238
113	0x3ec23d00	0.37937164
114	0xbf634b9e	-0.8878726
115	0x3e58cf52	0.21172836
116	0xbf49f725	-0.7889274
117	0x3e9677d1	0.29388288
118	0x3eb36a61	0.35042098
119	0x3e9f758e	0.31144375
120	0xbf878d14	-1.0589929
121	0x3ed2d20f	0.41175887
122	0x3f73d78a	0.9525076
123	0xbf5992b4	-0.84989476
124	0xbe565ded	-0.20934267
125	0xbdf51e12	-0.11968626
126	0x3e18253d	0.14857955
127	0xbe1b42b0	-0.15162158
128	0xbfac6d15	-1.3470789
129	0xbd9126e6	-0.070874974
130	0x3eeb8413	0.45999202
131	0x3f99534f	1.1978549
132	0x3e0c7612	0.13716915
133	0x3d292d28	0.04130283
134	0xbfa1d066	-1.2641723
135	0xbf98554d	-1.1901032
136	0xbf8eea95	-1.1165339
137	0xbf0838ed	-0.5321186
138	0xbe85d96b	-0.2614244
139	0xbe47638e	-0.19471571
140	0x3eb05a5e	0.34443945
141	0xbf6148ef	-0.8800191
142	0xbd65af97	-0.05607566
143	0xbdd1fc4a	-0.102531984
144	0xbde863da	-0.1134717
145	0x3ef7a0f7	0.48364994
146	0x3f3ab9d1	0.72939783
147	0x3d35e78a	0.044410266
148	0x3e0926c9	0.13393702
149	0x3f1f12d7	0.6213812
150	0xbf0cf9c6	-0.55068624
151	0xbf5cb558	-0.8621421
152	0x3f3629d5	0.7115758
153	0x3f5e3ee1	0.86814696
154	0x3ec437e8	0.38323903
155	0xbe957f8c	-0.29198873
156	0xbf57746b	-0.84162015
157	0xbf692186	-0.9106678
158	0xbc9fe504	-0.019518383
159	0xbf5927e8	-0.8482652
160	0xbf4ab792	-0.79186356
161	0xbeb00f77	-0.343868
162	0x3f2f0422	0.6836568
163	0xbf8dbece	-1.1073854
164	0x3e1ec99c	0.15506595
165	0x3fa22280	1.2666779
166	0x3e9e371d	0.30901423
167	0xbe032245	-0.12806042
168	0x3db180ec	0.08667168
169	0xbeec1622	-0.46110636
170	0xbdfa7758	-0.12229794
171	0x3e97135a	0.29506952
172	0xbd3842a3	-0.044985425
173	0x3efb3204	0.49061596
174	0xbe799964	-0.2437492
175	0xbec5f348	-0.3866217
176	0x3c87132b	0.016488632
177	0xbf3dabed	-0.7409046
178	0x3db7eac7	0.08980327
179	0xbd0f6d34	-0.035016254
180	0xbe029a84	-0.12754256
181	0x3c8e1ad9	0.017346786
182	0x3cbe51ef	0.023232428
183	0xbe41646e	-0.18885967
184	0x3dbfcbb8	0.09365028
185	0x3d0d1224	0.03444113
186	0xbde7c802	-0.11317445
187	0xbe0c7a8e	-0.13718626
188	0xbe3d6e4b	-0.18499105
189	0x3e2df93d	0.16989608
190	0xbde0c7f0	-0.10975635
191	0xbe64d1f4	-0.22345716
192	0xbc243924	-0.010023389
193	0xbccc14a0	-0.024912179
194	0xbe04f58e	-0.12984297
195	0xbe2132df	-0.15742062
196	0xbca40d98	-0.020026013
197	0x3de17499	0.11008567
198	0x3e0f246f	0.13978742
199	0xbd0d31aa	-0.03447119

fc2.bias f4 [10]
0	0xbdb6ce3e	-0.08926056
1	0xbdddce8b	-0.108304106
2	0xbe8bcbdf	-0.2730398
3	0xbdaa838b	-0.08325871
4	0xbd025d79	-0.031827424
5	0xbd2b3181	-0.041795257
6	0xbe14ecd7	-0.14543472
7	0xbe7a76f5	-0.24459441
8	0xbcbe7e06	-0.023253452
9	0xbe639f00	-0.22228622
