pytorch/mnist/savedModels/23Dec2021.pth (torch, 133063 bytes, 10 tensors)

conv1.weight f4 [8, 1, 5, 5]
0	0x3dd4e064	0.103943616
1	0xbdf27a4b	-0.11839732
2	0xbf21a7d7	-0.6314673
3	0xbf472a32	-0.7779876
4	0xbf14c9ca	-0.58120406
5	0xbd86276d	-0.065504886
6	0xbd71f03d	-0.059067
7	0xbe15f629	-0.14644684
8	0xbebe4a16	-0.37165898
9	0x3e2b756c	0.16744012
10	0x3e59abfe	0.21257016
11	0x3eaf87db	0.34283337
12	0x3f125a68	0.571692
13	0x3f50bdd6	0.81539667
14	0x3f388542	0.72078335
15	0x3ebf0431	0.37307885
16	0x3ed60b9c	0.41805732
17	0x3ebc0ad5	0.36727014
18	0x3f13f046	0.57788503
19	0x3e947001	0.28991702
20	0x3d4773c0	0.048694372
21	0x3e264824	0.16238457
22	0xbe177304	-0.14789969
23	0x3d8eece8	0.0697878
24	0xbdb99ad6	-0.09062736
25	0x3dbe5b59	0.09294767
26	0x3e2ba571	0.1676233
27	0x3edd7e16	0.43260258
28	0x3f0d195c	0.5511682
29	0x3ed378ff	0.4130325
30	0xbe8386d1	-0.25688794
31	0xbd91b645	-0.07114843
32	0x3c132658	0.00898131
33	0x3f04d9da	0.51894915
34	0x3e5ac609	0.21364607
35	0xbee5514f	-0.44788596
36	0xbe37c13e	-0.1794481
37	0x3dcb1a45	0.0991712
38	0x3f3118bb	0.6917836
39	0x3e37ff5a	0.17968503
40	0xbed2bb2c	-0.41158426
41	0xbeaa16ea	-0.33220607
42	0x3e9b7f03	0.3037034
43	0x3eb12e39	0.34605578
44	0x3ef064bc	0.46951854
45	0xbe95f5a4	-0.2928897
46	0xbca9745f	-0.020685373
47	0x3e37ab2d	0.17936392
48	0x3f03d3bf	0.51494974
49	0x3e2fc106	0.17163476
50	0xbdbd0fc6	-0.09231524
51	0x3e812a1a	0.25227433
52	0x3edba366	0.428981
53	0xbe36872b	-0.17825
54	0xbf3586e2	-0.7090894
55	0x3e00c57e	0.12575337
56	0x3f02f547	0.51155514
57	0x3f5030ea	0.81324637
58	0xbe144b22	-0.14481786
59	0xbf126998	-0.57192373
60	0xbe20e8fa	-0.15713874
61	0x3e8436e6	0.25823134
62	0x3f206404	0.6265261
63	0x3f1b23e7	0.6060166
64	0xbdc9f49a	-0.09861107
65	0xbd5abfe9	-0.053405676
66	0xbe30ae1e	-0.1725392
67	0x3ef41d95	0.4767882
68	0x3f5b46fb	0.8565518
69	0x3f28f234	0.6599457
70	0xbe2f4e22	-0.17119649
71	0x3df7a228	0.12091476
72	0x3d3288ec	0.04358761
73	0x3e97b8e3	0.29633245
74	0x3eab8233	0.33497772
75	0x3f168efd	0.5881193
76	0x3f094916	0.53627145
77	0x3f56c633	0.8389618
78	0x3f3bc9d1	0.7335482
79	0x3f02a5f4	0.51034474
80	0x3ef8a248	0.4856131
81	0x3efc6e9f	0.49303147
82	0x3ec48dbf	0.38389394
83	0x3e5e3a5f	0.21701954
84	0x3e5a2cb5	0.21306117
85	0xbddd9701	-0.10819817
86	0xbe81e1f5	-0.25367704
87	0xbec09b80	-0.37618637
88	0xbeed3599	-0.46329954
89	0xbe8a2c3f	-0.26986882
90	0xbe213256	-0.15741858
91	0xbf00d57d	-0.5032576
92	0xbf3ef7e8	-0.74597025
93	0xbf0bada6	-0.5456184
94	0xbe027961	-0.12741615
95	0xbe2a439d	-0.16627355
96	0xbec089a5	-0.37605014
97	0xbdc0f8a0	-0.094224215
98	0xbbe1cc76	-0.0068908287
99	0xbc80b219	-0.015709924
100	0xbd1d21bd	-0.038362253
101	0xbebe954d	-0.37223282
102	0xbec8f244	-0.39247334
103	0xbe6a95e5	-0.22908743
104	0x3e475ebd	0.19469734
105	0xbea584c4	-0.32327855
106	0xbe90e39a	-0.28298646
107	0xbeb06b30	-0.34456778
108	0x3da7555e	0.081705794
109	0x3efd5f37	0.49486706
110	0xbceafdf0	-0.02868554
111	0xbd12e215	-0.03586014
112	0x3e4b0956	0.1982778
113	0x3f4a9a9a	0.79142153
114	0x3f2c3857	0.6727347
115	0x3e541808	0.20712292
116	0x3ee4bda5	0.44675937
117	0x3f020160	0.5078335
118	0x3f2fc186	0.6865467
119	0x3ea8bf3f	0.3295841
120	0x3f09dde3	0.538542
121	0x3f121c95	0.5707486
122	0x3f17eb3a	0.593433
123	0x3eccbfd0	0.3999009
124	0xbc945883	-0.018108612
125	0xbb79040d	-0.00379968
126	0xbe39a3fb	-0.1812896
127	0xbed1d0d0	-0.40979624
128	0xbef3bebc	-0.47606456
129	0xbdda0a5a	-0.10646506
130	0x3d900a63	0.07033231
131	0x3ec38093	0.38184032
132	0x3e8b38e7	0.2719185
133	0x3df1a1e1	0.11798454
134	0xbe2fdf1a	-0.1717495
135	0x3ebb0c0d	0.36532632
136	0x3e96af8f	0.29430816
137	0x3efaa122	0.4895106
138	0x3e18bc4f	0.14915584
139	0x3d0251a7	0.03181615
140	0xbe547d5c	-0.20750946
141	0x3de5de38	0.112240255
142	0xbe14d1c6	-0.14533147
143	0x3e6d703a	0.23187342
144	0x3b68e685	0.003553779
145	0xbeb83a1a	-0.35981828
146	0xbeb9157b	-0.361492
147	0xbdbd0796	-0.092299625
148	0x3e15dcc1	0.14634992
149	0x3c7cb8e8	0.015424944
150	0xbd9842a8	-0.07434589
151	0xbe8539fa	-0.26020795
152	0xbea0b15f	-0.31385323
153	0xbe79ca39	-0.24393548
154	0x3e8010cf	0.25012824
155	0xbe0c56c5	-0.13704975
156	0xbea1bb4a	-0.31588203
157	0xbe56d856	-0.20980963
158	0xbd8b4353	-0.067999505
159	0x3e921626	0.28532523
160	0xbe009dda	-0.12560216
161	0xbe39463c	-0.18093199
162	0xbe1499c0	-0.14511776
163	0x3bba58fd	0.0056868778
164	0x3f1b99cc	0.6078155
165	0xbe6e4ee1	-0.23272277
166	0xbe81a14d	-0.25318375
167	0xbd419b28	-0.04726711
168	0x3e84592b	0.2584928
169	0x3ed2565d	0.41081515
170	0xbea3d520	-0.3199854
171	0xbe99165f	-0.2989988
172	0xbe6f6cfa	-0.23381415
173	0x3ea85069	0.32873848
174	0x3f04864c	0.5176742
175	0xbe291cba	-0.16514865
176	0xbc7b2442	-0.015328469
177	0xbe154f3d	-0.14581008
178	0x3ec3636c	0.3816179
179	0x3dde6aaf	0.10860192
180	0x3cd9ebc6	0.026601683
181	0x3cc0463c	0.02347099
182	0x3e4116b7	0.18856321
183	0x3f0c28b9	0.5474964
184	0xbd960b05	-0.073263206
185	0x3d990129	0.074709244
186	0x3d4edeb0	0.05050534
187	0x3e747f9c	0.23876804
188	0x3e9e980b	0.30975375
189	0x3e091cb9	0.13389863
190	0x3d64f19f	0.05589449
191	0x3ecab471	0.3959079
192	0x3ee1db06	0.44112414
193	0x3f42857d	0.75984937
194	0x3ec655eb	0.38737425
195	0xbde11868	-0.10990983
196	0x3e32a6e8	0.17446482
197	0x3ea7f695	0.32805315
198	0x3f11dbce	0.5697602
199	0x3ea16750	0.31524134

conv1.bias f4 [8]
0	0x3bfa88ba	0.0076456936
1	0xbe7e91e6	-0.24860343
2	0x3cc721dc	0.024308138
3	0x3e17d2e7	0.14826547
4	0x3c9705c9	0.018435376
5	0x3b4cb96b	0.0031238447
6	0x3dceb9af	0.1009401
7	0xbd007b4a	-0.031367578

conv2.weight f4 [10, 8, 5, 5]
0	0xbbd736e9	-0.006567825
1	0x3d35afd3	0.044357132
2	0x3e2a23b0	0.16615176
3	0x3e6c2819	0.23062171
4	0x3e31f120	0.17377138
5	0x3c158ca9	0.009127774
6	0xbe216c0b	-0.15763871
7	0xbc76d04c	-0.01506431
8	0x3d210c64	0.039318457
9	0xbd3ee191	-0.046601836
10	0xbd1a7798	-0.03771171
11	0xbe814488	-0.25247598
12	0xbe960355	-0.29299417
13	0xbdfa42ee	-0.12219797
14	0x3d9137fd	0.07090757
15	0xbd59ae14	-0.05314453
16	0xbc68b2fc	-0.014202829
17	0xbe8b6ee7	-0.2723305
18	0xbe054201	-0.1301346
19	0x3e5aeecd	0.21380158
20	0x3da80cf9	0.08205599
21	0xbda7e957	-0.08198803
22	0xbe65d2c4	-0.22443682
23	0xbe352c09	-0.1769258
24	0x3d117cca	0.0355194
25	0xbc58aac1	-0.013224305
26	0x3d2e4caf	0.0425536
27	0x3e1df52b	0.15425555
28	0xbe4e634b	-0.20155065
29	0xbe83c750	-0.25738
30	0xbda6d5e9	-0.08146269
31	0x3d0e3617	0.034719553
32	0x3ebe2736	0.3713929
33	0x3e83de97	0.2575576
34	0xbdd00074	-0.101563364
35	0xbd7f2903	-0.06229497
36	0xbd9031f1	-0.070407756
37	0x3eb3f459	0.3514736
38	0x3ee44659	0.4458492
39	0xbda43965	-0.0801876
40	0x3c32956b	0.010899882
41	0xbdf21429	-0.118202515
42	0x3e3a5a32	0.1819847
43	0x3ebfbec3	0.37450227
44	0xbdb0503b	-0.08609053
45	0xbdb601e7	-0.088870816
46	0xbe66a48c	-0.22523707
47	0x3d84f90d	0.06492815
48	0x3e4c77f4	0.19967633
49	0x3d09993f	0.033593412
50	0xbe1553a6	-0.1458269
51	0x3e3076ec	0.17232865
52	0x3ef0bcad	0.47018948
53	0x3e1c34e7	0.15254556
54	0xbdc1d4c0	-0.09464407
55	0xbd9c15e7	-0.07621365
56	0xbdfb4719	-0.1226942
57	0x3ec990b1	0.39368203
58	0x3ea327c1	0.31866267
59	0xbda50b31	-0.08058775
60	0xbc50d234	-0.012745429
61	0xbe27f2fe	-0.16401288
62	0x3e4e2fb0	0.20135379
63	0x3efeee64	0.49791253
64	0x3e37ef43	0.17962365
65	0x3cb8dfb5	0.02256761
66	0xbe2d6584	-0.16933256
67	0xbb12b41b	-0.0022385183
68	0x3f09fa65	0.53897697
69	0x3e4ee061	0.20202781
70	0xbdff78f8	-0.12474245
71	0xbe75b947	-0.23996459
72	0xbde714cc	-0.112832636
73	0x3e2e838b	0.17042367
74	0x3dd7ccdc	0.10537121
75	0x3d8a0d22	0.06740786
76	0xbdfa4c22	-0.122215524
77	0xbe6501a9	-0.22363915
78	0xbe571295	-0.21003182
79	0xbd6bfdaf	-0.05761498
80	0xbcae0a50	-0.021245152
81	0x3d9fb1ea	0.07797606
82	0xbe31d89a	-0.17367783
83	0xbeb1cfdb	-0.34728894
84	0xbdf7d167	-0.12100487
85	0xbd81d756	-0.063399
86	0xbd2d8166	-0.042359732
87	0xbe9cccc4	-0.30624974
88	0xbeca527c	-0.39516056
89	0xbe809d1c	-0.25119865
90	0x3dac3dc6	0.0841022
91	0xbde08798	-0.109633625
92	0xbe63e5d0	-0.22255635
93	0xbe460958	-0.19339502
94	0xbd81903c	-0.06326339
95	0x3d2d7a94	0.042353228
96	0x3dbd25ce	0.09235726
97	0x3ceb0117	0.028687043
98	0xbd6a3100	-0.057175636
99	0xbdce4ebb	-0.100736104
100	0xbda51dbd	-0.08062313
101	0x3d64f571	0.055898134
102	0xbd5320bc	-0.05154489
103	0x3decb98a	0.11558826
104	0x3da974d1	0.08274234
105	0xbc8f9da9	-0.017531233
106	0xbcba00df	-0.022705493
107	0xbde00766	-0.10938911
108	0xbc1fb230	-0.009747073
109	0xbe6d9b22	-0.2320371
110	0xbd140ca8	-0.036144882
111	0xbcda025d	-0.026612455
112	0xbbf3d6a0	-0.007441357
113	0xbe01cf90	-0.12676835
114	0xbe729a61	-0.23691703
115	0xbd044a02	-0.03229714
116	0x3d4eeba1	0.050517682
117	0x3cb0ce65	0.021582792
118	0xbe6fbc2a	-0.23411623
119	0xbe0d0c3e	-0.13774201
120	0x3d958eee	0.07302652
121	0xbda4adae	-0.08040939
122	0xbe0c54f1	-0.13704278
123	0xbd9fc228	-0.07800704
124	0xbe1a8f0c	-0.1509363
125	0x3d4b1641	0.04958177
126	0x3daf4632	0.085583106
127	0x3d9b8ff4	0.07595816
128	0x3d936cf7	0.07198518
129	0x3d59e562	0.053197272
130	0x3d829186	0.06375413
131	0x3d3c7dde	0.046018474
132	0x3dcf6546	0.10126738
133	0xbcc95d80	-0.024580717
134	0x3d0d6df1	0.034528676
135	0xbb862441	-0.0040936773
136	0x3c5f154c	0.013615917
137	0xbe0db6a4	-0.13839203
138	0x3d82644c	0.06366786
139	0xbd04c91c	-0.032418355
140	0xbcd2f590	-0.025751859
141	0x3c62a3c0	0.013832986
142	0xbdd593f1	-0.10428608
143	0x3c5d4958	0.013506256
144	0x3cf86a67	0.030324174
145	0xbcedc7b4	-0.02902589
146	0x3dca5233	0.098789595
147	0x3d1b71fb	0.037950497
148	0xbdae84e3	-0.0852144
149	0x3dacb65d	0.084332205
150	0x3db91e60	0.09038997
151	0x3cacfc96	0.021116536
152	0x3cbf7d22	0.023375098
153	0x3de869aa	0.11348279
154	0x3c493ec1	0.012283028
155	0xbc4ca547	-0.012490577
156	0xbcc9b20f	-0.024621038
157	0x3e0fc995	0.14041741
158	0x3e24c292	0.16089848
159	0xbe0c0971	-0.13675477
160	0xbdf426e5	-0.11921481
161	0xbce74a47	-0.02823366
162	0x3e2ae9c8	0.16690743
163	0x3d0f1368	0.034930617
164	0xbda933ff	-0.082618706
165	0xbc94f0d8	-0.01818125
166	0xbd80f3c9	-0.06296498
167	0x3dd0db8d	0.10198126
168	0x3d43a337	0.047763076
169	0xbd25014f	-0.04028445
170	0xbdb2d4f8	-0.08732027
171	0xbd80f422	-0.06296565
172	0xbce091e8	-0.027413324
173	0xbdf8fa8f	-0.12157165
174	0x3ced954e	0.029001858
175	0xbc84d860	-0.016216457
176	0x3ccb31e7	0.024804069
177	0x3e751e54	0.2393735
178	0x3d7abd8a	0.061215915
179	0xbe3441b6	-0.17603192
180	0xbe0e08df	-0.13870572
181	0xbda4e970	-0.08052337
182	0x3e3b998f	0.18320297
183	0x3e81af0c	0.25328863
184	0xbdf701b5	-0.120608725
185	0xbe1ce423	-0.15321402
186	0xbdb851cd	-0.08999977
187	0x3dfd8eaa	0.12380727
188	0x3e94fb43	0.29097947
189	0xbe0bfe37	-0.13671194
190	0xbd0d5d2a	-0.034512676
191	0xbdc105ae	-0.094249114
192	0x3e14a274	0.14515096
193	0x3e4284e9	0.18996014
194	0xbd91547c	-0.07096192
195	0x3cb7b293	0.022424018
196	0xbd8abd00	-0.0677433
197	0x3cc87be6	0.024473142
198	0xbd1ab4b6	-0.037769996
199	0xbdabb439	-0.08383984
200	0xbd0371e6	-0.032091044
201	0xbd7132e5	-0.058886427
202	0xbe152269	-0.14563908
203	0xbdf8517e	-0.121249184
204	0xbdf1110b	-0.11770829
205	0x3dd090b2	0.101838484
206	0xbdc282d7	-0.09497612
207	0x3cd1d772	0.025615428
208	0xbd98245a	-0.074288085
209	0xbcc3f566	-0.023920726
210	0x3e3cbe68	0.18432009
211	0x3ed8f014	0.42370665
212	0x3e997264	0.29970086
213	0x3e73251e	0.23744628
214	0x3e1c5b99	0.15269317
215	0x3de6bab8	0.112660825
216	0xbde638ed	-0.112413265
217	0x3dc173f0	0.094459414
218	0x3e1b8678	0.15188015
219	0x3e2b9b93	0.16758566
220	0xbdc2b02b	-0.095062576
221	0xbe25a23e	-0.16175172
222	0xbdf2e947	-0.118609
223	0x3c6194f5	0.013768424
224	0xbd931b0e	-0.07182895
225	0xbd84cf50	-0.06484854
226	0xbdd993ed	-0.10623918
227	0xbd850a74	-0.064961344
228	0xbd712dd0	-0.05888158
229	0xbd94f43f	-0.07273149
230	0xbd1b5e18	-0.03793153
231	0xbdc6d868	-0.09709245
232	0xbe0a97a0	-0.13534403
233	0xbe461b91	-0.19346453
234	0xbd297c4a	-0.041378297
235	0xbc96c44a	-0.018404145
236	0xbd172435	-0.036899764
237	0xbdf9b262	-0.12192227
238	0xbdf7444c	-0.120735735
239	0xbc9ca308	-0.019120708
240	0x3d082f6e	0.033248357
241	0x3d032e49	0.032026563
242	0x3dc4828d	0.09595213
243	0x3d8d361d	0.06895087
244	0xbdeae753	-0.11469903
245	0x3da03bac	0.078238815
246	0x3d0093da	0.031391002
247	0x3dc604a7	0.09668856
248	0x3ddc264b	0.10749491
249	0xbe1ec674	-0.15505391
250	0xbd604803	-0.054756176
251	0xbe2efdc4	-0.17088991
252	0xbdf0773f	-0.117414944
253	0xbd92135e	-0.071326
254	0xbdb39ff2	-0.087707415
255	0x3e1737b5	0.14767344

conv2.bias f4 [10]
0	0xbce4ef38	-0.0279461
1	0xbd3f129a	-0.0466486
2	0x3c88b7a8	0.016689137
3	0x3c2896b3	0.010289836
4	0xbe04e222	-0.12976888
5	0xbdb6256f	-0.08893859
6	0xbd8a3621	-0.067486055
7	0x3d73b18e	0.0594955
8	0xbd877535	-0.06614152
9	0x3e33d719	0.17562522

fc1.weight f4 [120, 160]
0	0xbce5c89c	-0.02804976
1	0xbc86303b	-0.01638042
2	0x3c1462df	0.009056776
3	0x3e114bc0	0.14189053
4	0xbe437c21	-0.1909032
5	0x3dc15eba	0.09441896
6	0xbd026486	-0.031834148
7	0x3d831c73	0.06401911
8	0xbe081fe7	-0.1329342
9	0xbe07ccc0	-0.132617
10	0xbd6019ab	-0.05471198
11	0x3cb8bcf5	0.02255104
12	0xbe09a9b8	-0.13443649
13	0x3dc929c0	0.09822416
14	0x3e214e90	0.15752625
15	0x3c6a63a7	0.0143059855
16	0x3dcbec67	0.099571995
17	0x3d9adc7c	0.07561585
18	0x3e00d486	0.12581071
19	0xbc737dbd	-0.014861521
20	0xbd0b635f	-0.034030315
21	0x3d01db82	0.03170348
22	0x3d5ce661	0.053930644
23	0x3d2e93ab	0.042621296
24	0xbd3a1aaf	-0.045435604
25	0x3e0970c5	0.13421924
26	0x3d652a75	0.055948693
27	0x3db2c6f1	0.08729351
28	0xbbdd6f4c	-0.0067576524
29	0x3c918a04	0.017766006
30	0x3d11713e	0.035508387
31	0x3d796f6e	0.060897283
32	0x3db77554	0.089579254
33	0xbdc5069c	-0.09620401
34	0xbe2b6f8a	-0.16741768
35	0x3d8f726a	0.070042446
36	0xbe302b62	-0.17204049
37	0xbd48ad33	-0.0489933
38	0xbdddafaf	-0.108245246
39	0xbd953bcc	-0.07286796
40	0xbc7c6701	-0.015405417
41	0x3e01571c	0.12630886
42	0x3d5d7e90	0.054075778
43	0xbd942353	-0.072333
44	0xbdca5f77	-0.0988149
45	0xbdc066a3	-0.093945764
46	0x3d536e4c	0.05161886
47	0x3db8ee7b	0.090298615
48	0xbe359913	-0.17734174
49	0xbd92dd02	-0.0717106
50	0x3d9869d6	0.074420616
51	0x3dc5a1ff	0.09650039
52	0xbdf24a35	-0.1183056
53	0x3cb64057	0.022247477
54	0x3dc7f4db	0.09763499
55	0x3dae8c9b	0.08522912
56	0xbd8aec33	-0.06783333
57	0xbd94109c	-0.072297305
58	0xbdf00ab1	-0.11720789
59	0x3d469ced	0.0484895
60	0x3d787ebd	0.060667742
61	0x3e13d930	0.14438319
62	0xbc68617a	-0.0141833965
63	0x3c1b16aa	0.009465853
64	0x3df4a3f2	0.119453326
65	0x3dfc8525	0.12330083
66	0x3c91d10f	0.017799882
67	0xbd12514f	-0.035722073
68	0xbd021868	-0.031761557
69	0xbc807a40	-0.015683293
70	0xbd5787f3	-0.052619886
71	0x3c26507a	0.010151023
72	0xbd81fcba	-0.06347032
73	0xbc98bd6f	-0.018645016
74	0x3c4c6846	0.012476033
75	0x3c53e487	0.012932903
76	0x3cfcbaaf	0.030850736
77	0x3c625884	0.013815049
78	0x3d8dcd48	0.0692392
79	0xbdaf4aa3	-0.08559158
80	0xbd8a8f0b	-0.067655645
81	0xbdfa2953	-0.12214913
82	0xbd11ee7c	-0.035627827
83	0x3db8fa00	0.09032059
84	0x3d8235e7	0.06357937
85	0x3cb84d0f	0.022497682
86	0x3d191de7	0.037382033
87	0x3c9f5287	0.019448532
88	0xbdce1e05	-0.100643195
89	0xbd3abd07	-0.045590427
90	0xbd3d89f8	-0.046274155
91	0xbd3f7a8b	-0.046747725
92	0x3df99fd1	0.12188686
93	0xbdbbb36b	-0.09165081
94	0x3d3938f0	0.045220315
95	0xbd3d1b15	-0.046168406
96	0x3d63db52	0.055629082
97	0x3b698db5	0.0035637442
98	0xbd7055e6	-0.05867567
99	0xbd5ad020	-0.05342114
100	0x3d09e926	0.033669613
101	0xbc307372	-0.010769712
102	0xbd1f3044	-0.03886439
103	0xbd8beabf	-0.06831884
104	0x3d8a6595	0.067576565
105	0xbd2920da	-0.041291095
106	0x3c3ae203	0.011406424
107	0xbb05d6b6	-0.0020422167
108	0x3c46bea1	0.01213041
109	0xbcf6457e	-0.030062433
110	0xbd78e097	-0.06076106
111	0x3d722a96	0.059122644
112	0x3d611702	0.054953583
113	0x3cf7496e	0.030186381
114	0x3d83cc41	0.06435443
115	0x3d4f6d4a	0.050641336
116	0x3b9d31f5	0.004797215
117	0xbd4b119f	-0.04957735
118	0x3d22e7ca	0.039771833
119	0xbd553925	-0.05205645
120	0xbd0cb442	-0.034351595
121	0x3d9ec4cb	0.07752379
122	0x3d80b708	0.062849104
123	0xbd4a2d8a	-0.049359836
124	0xbd493da8	-0.049131066
125	0x3d9216e9	0.07133276
126	0xbd8fe579	-0.0702619
127	0xbd936797	-0.071974926
128	0x3e12bfc4	0.14330965
129	0x3d8d4a74	0.068989664
130	0x3e015a4a	0.12632099
131	0x3d5a38b4	0.053276733
132	0x3d1c8e31	0.03822154
133	0x3ce8e4bf	0.028429387
134	0xbd3ec21a	-0.04657183
135	0xbc795cad	-0.0152198495
136	0x3dc03573	0.09385195
137	0x3d2bfebf	0.04199099
138	0x3dba7677	0.091046266
139	0x3cb0e376	0.021592837
140	0x3e1225db	0.14272253
141	0x3ddfbf36	0.109251425
142	0xbc400540	-0.011720002
143	0xbcf82a38	-0.030293569
144	0x3e4104c5	0.18849476
145	0x3a82c843	0.0009977896
146	0x3c9cce88	0.01914145
147	0x3c88af02	0.016685013
148	0x3de2d34c	0.11075458
149	0xbcaacfbe	-0.020851012
150	0xbd3acb0d	-0.0456038
151	0x3db2815b	0.08716079
152	0x3d1ebf8a	0.038756885
153	0xbcb7b4d0	-0.022425085
154	0xbbeb7fb3	-0.007186854
155	0x3e36c562	0.17848733
156	0x3e241fec	0.16027802
157	0xbcfa6221	-0.03056437
158	0x3d852dab	0.06502851
159	0x3daeda58	0.085377395
160	0x3d314c1f	0.043285485
161	0xbc183009	-0.009288796
162	0xbd1774ee	-0.036976747
163	0x3ca48353	0.020082152
164	0xbd2360a5	-0.03988709
165	0xbd6c4b1b	-0.057688814
166	0x3d772f69	0.06034795
167	0x3d1c13d7	0.03810486
168	0x3d16ee4a	0.036848344
169	0xbd4ab508	-0.04948905
170	0xbce7a91f	-0.028278885
171	0x3d813d0d	0.06310473
172	0xbd72770a	-0.059195556
173	0xbdcfa202	-0.101383224
174	0xbd448696	-0.047979914
175	0xbcb4200a	-0.021987934
176	0xbd449695	-0.04799517
177	0xbc9ba3e1	-0.018999042
178	0x3d57db5f	0.052699443
179	0x3d99efe3	0.07516458
180	0x3cd36e7e	0.025809523
181	0xbcc06f5d	-0.023490602
182	0xbd6777e3	-0.056510817
183	0x3db53a68	0.08849031
184	0x3d6422f4	0.055697396
185	0xbcd1d8fd	-0.025616163
186	0xbcb79486	-0.022409689
187	0x3c2df2c4	0.010616962
188	0xbd946f5c	-0.072478026
189	0xbd92e16c	-0.07171902
190	0xbc81540a	-0.015787143
191	0xbce98d80	-0.028509855
192	0x3d261400	0.040546417
193	0xbdb5b58b	-0.08872517
194	0xbd7d01b0	-0.061769187
195	0x3d090cb1	0.03345937
196	0xbc268045	-0.010162418
197	0x3d4479db	0.047967773
198	0x3c3e7c0b	0.011626254
199	0x3b1098a8	0.0022063646
200	0x3d86e0fa	0.065858796
201	0xbdc29edf	-0.095029585
202	0xbb61d4fc	-0.0034459224
203	0xbc3a8ca3	-0.0113860695
204	0xbdc8496b	-0.09779628
205	0xbcdfd479	-0.027322995
206	0x3cdb28c2	0.026752833
207	0x3c481ee5	0.012214397
208	0xbd485752	-0.0489114
209	0xbdaf4e4f	-0.08559858
210	0xbd1573fb	-0.03648756
211	0xbb29b6ec	-0.0025896383
212	0xbc851eda	-0.016250063
213	0xbbfb1d4e	-0.0076634055
214	0xbcc2bdfa	-0.023772229
215	0xbcefc100	-0.029266834
216	0x3aac5237	0.001314706
217	0x3ce43a3a	0.027859796
218	0xbda38cdb	-0.079858504
219	0xbd3f5ba8	-0.04671827
220	0xbd5eb054	-0.05436738
221	0x3d0c6d1c	0.034283742
222	0x3c67d235	0.014149238
223	0xbd174121	-0.036927346
224	0xbc9d350e	-0.019190338
225	0x3c575566	0.013142919
226	0x3d9d3dd4	0.076778084
227	0xbbe8d4f7	-0.0071054655
228	0x3b1b8f5e	0.0023736577
229	0x3d80a376	0.06281178
230	0xbd8845a6	-0.066539094
231	0x3d1b015a	0.037843086
232	0x3dbab150	0.09115851
233	0x3ca832c0	0.020532012
234	0xbd8a1b1b	-0.06743451
235	0xbd1cbc81	-0.03826571
236	0x3d9667f5	0.07344047
237	0xbd9c0d7b	-0.07619759
238	0xbd7c41d3	-0.061586212
239	0xbbefcab5	-0.0073178657
240	0xbc9d1e01	-0.019179346
241	0x3c28a801	0.0102939615
242	0xbd1add06	-0.03780844
243	0x3d6bbab0	0.057551086
244	0x3d501aad	0.05080669
245	0x3bce29d2	0.0062916065
246	0x3c9153c0	0.01774013
247	0xbc5911a2	-0.013248833
248	0x3c8982e7	0.016786052
249	0x3c041f89	0.008064159
250	0x3b988fb6	0.0046558036
251	0x3d3691d1	0.044572655
252	0xbcc34773	-0.02383778
253	0x3d2bd3da	0.041950084
254	0xbcd40fb7	-0.0258864
255	0x3bad798f	0.005294032

fc1.bias f4 [120]
0	0x3d78a7c7	0.06070688
1	0xbc94a16f	-0.018143384
2	0x3d6cccfa	0.05781267
3	0x3d370b75	0.04468866
4	0x3d84b9a8	0.064807236
5	0x3bc551f3	0.006021732
6	0x3d2d31a1	0.042283658
7	0xbdc84bcb	-0.09780081
8	0xbd01d402	-0.031696327
9	0x3dccffc1	0.10009719
10	0xbc70e811	-0.014703766
11	0x3d49e8ce	0.049294285
12	0xbcbb1d84	-0.022841223
13	0xbd93e598	-0.07221526
14	0x3b91d9d0	0.004451014
15	0x3daa97aa	0.08329709
16	0xbd08e878	-0.033424824
17	0x3dbcd806	0.09220891
18	0x3db5877e	0.08863734
19	0x3d008cef	0.031384405
20	0x3d31981b	0.04335795
21	0xbd0a1bf8	-0.03371808
22	0xbd878982	-0.066180244
23	0xbd77dab2	-0.0605113
24	0x3cacce25	0.021094391
25	0xbd88b437	-0.06674998
26	0x3cbfbe10	0.023406059
27	0xbd95172d	-0.07279811
28	0x3b88e70d	0.004177934
29	0xbd7fcdc4	-0.062452093
30	0xbcd47914	-0.02593664
31	0xbb942dbd	-0.004522054
32	0x3d99f19d	0.07516787
33	0xbc22447a	-0.009904021
34	0x3cb7309a	0.022362042
35	0x3d286dec	0.041120455
36	0x3ca90b8d	0.02063539
37	0x3daba7ae	0.08381592
38	0x3d580b96	0.052745424
39	0x3daceef6	0.08444016
40	0xbcf5e498	-0.030016229
41	0x3da5a2dc	0.080877036
42	0x3ce6e3a7	0.028184725
43	0x3dcfb48c	0.101418585
44	0x3d4e4bef	0.050365385
45	0xbda80ff9	-0.082061715
46	0xbd738e48	-0.05946186
47	0xbd70cdf0	-0.058790147
48	0xbd1cccfb	-0.038281422
49	0xbd6ae3ab	-0.057346027
50	0x3c49abba	0.012309009
51	0xbd8ee5b2	-0.06977405
52	0xbb60dc90	-0.0034311153
53	0xbd3638d5	-0.044487793
54	0x3d8c11ea	0.06839354
55	0x3c3a0f9b	0.01135626
56	0x3dc3d3cf	0.09561884
57	0x3d8294df	0.06376051
58	0x3d1f9928	0.03896442
59	0xbd6f4485	-0.058414955
60	0xbd5abb4e	-0.053401284
61	0xbbba1adf	-0.005679473
62	0x3d390408	0.04516986
63	0x3c560be2	0.0130643565
64	0xbd27b24c	-0.04094152
65	0xbdb1e5f9	-0.08686442
66	0xbc9ad8fe	-0.018902298
67	0xbce8c18f	-0.028412608
68	0x3d6a5847	0.057213094
69	0xbd2cc050	-0.04217559
70	0x3d20cab7	0.039255824
71	0x3c8db4ea	0.01729818
72	0xbd01a9aa	-0.031655945
73	0x3c2214e8	0.00989268
74	0x3d9657e7	0.07340985
75	0xbd352e03	-0.044233333
76	0x3caea4fa	0.021318901
77	0xbd092b03	-0.033488285
78	0xbd5f5800	-0.054527283
79	0x3d1962ed	0.03744786
80	0xbb5ebb5d	-0.003398619
81	0xbc169905	-0.009191756
82	0x3d841149	0.064486094
83	0xbd36a38f	-0.044589575
84	0x3c7c41ee	0.015396578
85	0xbd8562ef	-0.06513011
86	0x3c81b702	0.015834335
87	0xbd1a7c97	-0.037716474
88	0x3dbcb225	0.09213666
89	0xbda6e236	-0.08148615
90	0xbd008f24	-0.03138651
91	0x3d212147	0.039338376
92	0xbd923c73	-0.07140436
93	0xbb85bd76	-0.0040814234
94	0xbd960d91	-0.07326806
95	0xbd019fe8	-0.03164664
96	0x3d8e0e73	0.0693635
97	0x3b3b4346	0.0028574034
98	0x3db4bcb2	0.08825053
99	0x3c3a5bd7	0.011374435
100	0x3d88a843	0.066727184
101	0x3ad9c643	0.0016614873
102	0x3d2333c5	0.039844293
103	0xbd7e68fe	-0.062111847
104	0x3d65ae9e	0.05607473
105	0x3d8a6fca	0.06759603
106	0xbca56f8f	-0.020194797
107	0xbd03fc91	-0.032223288
108	0x3dac3af8	0.08409685
109	0xbd75cf0a	-0.0600119
110	0xbb227b42	-0.0024792706
111	0x3b52fc20	0.0032193735
112	0x3db133bf	0.08652448
113	0x3d0e2157	0.034699764
114	0x3cc01e62	0.023451988
115	0x3d2aa848	0.04166439
116	0x3d124d2d	0.03571813
117	0xb90f4074	-0.00013661553
118	0xbd221db9	-0.039579127
119	0x3d92d665	0.07169799

fc2.weight f4 [84, 120]
0	0x3dab3975	0.083605684
1	0xbc96b361	-0.018396081
2	0x3e37792c	0.17917317
3	0xbbce84d7	-0.006302457
4	0x3e020cfe	0.12700269
5	0x3d6a79db	0.057245117
6	0x3da9f8f0	0.08299434
7	0x3c4bbe49	0.012435504
8	0xbca3657b	-0.01994585
9	0x3c615a93	0.013754505
10	0x3e108b6e	0.14115688
11	0xbdb54d42	-0.088526264
12	0xbd84dbd0	-0.064872384
13	0xbdb81b5b	-0.08989593
14	0xbd025916	-0.03182324
15	0x3d5cf595	0.053945143
16	0x3d88e657	0.06684559
17	0xbd8b9323	-0.068151735
18	0xbd0e80a5	-0.034790654
19	0x3da271e8	0.07931882
20	0x3c84a476	0.016191702
21	0x3d5a8500	0.053349495
22	0xbd973603	-0.07383349
23	0xbdc93d38	-0.0982613
24	0x3c7f2adc	0.015574183
25	0xbde48803	-0.11158755
26	0x3ce22522	0.027605597
27	0x3c263994	0.010145564
28	0xbdbd6210	-0.092472196
29	0xbd1385f5	-0.036016423
30	0x3e44c513	0.19215803
31	0xbdaa23d7	-0.08307617
32	0x3dc03c9e	0.09386562
33	0xbd865dee	-0.065608844
34	0x3c2d4615	0.010575791
35	0xbdd616ef	-0.10453593
36	0x3aeba2b2	0.0017977564
37	0x3e13ba29	0.14426483
38	0xbdeb8992	-0.11500849
39	0x3e43c5bc	0.19118398
40	0xbc0f4e09	-0.008746632
41	0x3d92ea3d	0.07173584
42	0x3d7ad7f8	0.06124112
43	0xbd580315	-0.052737314
44	0xbe1645e9	-0.14675106
45	0x3d403955	0.046929676
46	0xbca0ae46	-0.01961435
47	0x3dbe7520	0.092996836
48	0xbe11951a	-0.14217034
49	0xbd6a6e62	-0.057234176
50	0x3d478610	0.048711836
51	0xbd18e298	-0.03732547
52	0x3e27921b	0.16364329
53	0xbd8da978	-0.06917089
54	0x3db1e5bb	0.08686396
55	0xbe123159	-0.14276637
56	0xbdd3eeec	-0.10348305
57	0x3d0ad00f	0.033889826
58	0x3e10d973	0.1414545
59	0x3d8f7c6d	0.07006154
60	0xbd54ec7e	-0.05198335
61	0xbc0b654c	-0.008508038
62	0xbcb732eb	-0.022363147
63	0x3d42cbb2	0.04755754
64	0x3dd3f266	0.10348968
65	0xbd0abf31	-0.03387374
66	0xbcfcc724	-0.030856676
67	0xbd831aef	-0.064016216
68	0xbe3d984d	-0.1851513
69	0xbd8cdfc2	-0.06878616
70	0x3e6bfbc8	0.23045266
71	0xbe09310b	-0.13397615
72	0xbd217c75	-0.039425332
73	0x3da12db0	0.07870042
74	0xbd820b6f	-0.06349837
75	0x3caf1fa2	0.021377388
76	0xbd277e91	-0.040892188
77	0xbe1b05a4	-0.1513887
78	0x3d547702	0.051871307
79	0xbd58c035	-0.052917678
80	0x3d27f421	0.041004304
81	0x3da808b6	0.082047865
82	0x3cba0c72	0.022711013
83	0x3c84d147	0.016213072
84	0xbdc6ddce	-0.09710275
85	0xbdbdf092	-0.09274401
86	0x3e1f4123	0.15552191
87	0xbddabdd5	-0.10680739
88	0xbd156abc	-0.036478743
89	0x3d296671	0.04135746
90	0xbd83a670	-0.0642823
91	0xbe1bf37d	-0.15229602
92	0xbca72f32	-0.020408247
93	0x3cbdf610	0.02318862
94	0x3d394c69	0.045238886
95	0x3dac6ce3	0.08419206
96	0x3dbb2cf0	0.091394305
97	0x3dbf30fc	0.09335515
98	0x3df449ac	0.11928114
99	0x3dafce75	0.085843004
100	0x3d755424	0.059894696
101	0x3dfe6530	0.12421644
102	0xbd88e95e	-0.06685136
103	0xbd06add7	-0.03288063
104	0xbd3a6670	-0.04550785
105	0xbb189948	-0.0023284722
106	0x3ca9e87a	0.020740736
107	0x3cd27bd5	0.025693813
108	0xbcc58baf	-0.024114458
109	0xbdf89729	-0.121382065
110	0x3da05573	0.07828798
111	0xbd922373	-0.07135668
112	0x3d2ae3b4	0.04172106
113	0xbb8f5f6b	-0.0043753884
114	0xbd4ac66b	-0.049505632
115	0x3d412bb0	0.047160804
116	0xbdeae78b	-0.114699446
117	0x3bc07a8c	0.0058739837
118	0xbdcd7d37	-0.100336485
119	0xbdd610b2	-0.10452403
120	0xbdcdfc83	-0.100579284
121	0x3d88aab2	0.066731825
122	0x3d79ac13	0.06095512
123	0x3c865f76	0.016402941
124	0xbdb10d4e	-0.08645116
125	0x3cb5d7cd	0.022197628
126	0x3d1f7f89	0.038939986
127	0xbcb4df56	-0.022079151
128	0x395252ac	0.00020057958
129	0x3ce78c06	0.02826501
130	0x3e27d495	0.16389687
131	0xbe029b61	-0.12754585
132	0x3e0bea1a	0.13663521
133	0xbd9a9857	-0.07548588
134	0x3d325ee6	0.043547533
135	0x3e0ec72e	0.13943169
136	0xbc88141c	-0.016611151
137	0xbd2e8011	-0.042602602
138	0x3d89ed1f	0.067346804
139	0xb96303d6	-0.00021649836
140	0xbb974632	-0.004616522
141	0x3c657449	0.014004775
142	0x3d5265c8	0.051366597
143	0x3d9d63c9	0.07685048
144	0x3db22d3a	0.087000325
145	0xbd6bde3f	-0.057584997
146	0x3d97e546	0.07416777
147	0x3dcd8e0d	0.1003686
148	0x3da8f3a5	0.082495965
149	0xbc434ff6	-0.01192092
150	0xbe01cfd1	-0.12676932
151	0xbc7aeb1a	-0.015314842
152	0x3e0907d8	0.13381898
153	0x3d1e4f69	0.03864995
154	0xbd81564a	-0.063152865
155	0xbcdbcea1	-0.026831927
156	0xbe06fa21	-0.13181354
157	0x3db76122	0.089540735
158	0x3df7cf49	0.121000834
159	0x3dc02700	0.09382439
160	0x3d24a663	0.04019774
161	0x3dae2233	0.08502617
162	0x3cb3cb72	0.021947596
163	0x3d362f4b	0.044478696
164	0xbd8915aa	-0.06693585
165	0x3d4363ac	0.047702476
166	0x3dcc5eeb	0.09979042
167	0x3c878f1f	0.016547738
168	0xba5193dc	-0.000799475
169	0x3c817c5f	0.015806375
170	0xbd8daeee	-0.06918131
171	0xbd1321b6	-0.03592082
172	0x3dc7ac0e	0.09749614
173	0xbd632d8e	-0.055463366
174	0x3db9df66	0.09075813
175	0x3d1d56ed	0.038412977
176	0xbccd629e	-0.025071438
177	0xbd10ed99	-0.03538284
178	0x3d2bcbae	0.04194229
179	0x3d7ab041	0.061203245
180	0x3db60148	0.08886963
181	0xbde05acb	-0.109548174
182	0x3db1504d	0.08657894
183	0x3c117e9a	0.008880282
184	0xbcdf58d9	-0.027264046
185	0x3c9cbb08	0.019132152
186	0x3df7b004	0.12094119
187	0xbd82748c	-0.06369886
188	0xbe1e040e	-0.15431234
189	0xbd9d9a7e	-0.07695483
190	0x3e214816	0.15750155
191	0xbda25068	-0.079254925
192	0x3ceaacbc	0.02864682
193	0xbd7b8ddb	-0.06141458
194	0xbd121051	-0.03566009
195	0x3ae7cd16	0.0017685022
196	0xbd5ba4a7	-0.05362382
197	0x3b57bb2b	0.0032917957
198	0x3d15977c	0.03652142
199	0xbe1932b1	-0.14960743
200	0xbc3a0fb8	-0.011356287
201	0xbe42ccec	-0.19023484
202	0x3d9697fb	0.07353207
203	0x3d0410d1	0.0322426
204	0x3c6b835e	0.014374582
205	0xb9fd82d7	-0.00048353404
206	0x3bb01647	0.0053737494
207	0x3ccd6a05	0.025074968
208	0x3c9eaabb	0.01936852
209	0xbd4d9272	-0.05018849
210	0xbd4d3877	-0.050102677
211	0x3b9b58bd	0.004740803
212	0x3de856e5	0.11344699
213	0xbd118226	-0.03552451
214	0xbd64713f	-0.055772062
215	0x3d471600	0.048604965
216	0xbb994b9a	-0.004678202
217	0x3cd8665e	0.026416
218	0xbd2fdde2	-0.042936213
219	0xbc971f54	-0.018447556
220	0x3e1aebf9	0.15129079
221	0x3c18fc1e	0.009337453
222	0xbcdde892	-0.027088437
223	0xbdabc1e8	-0.08386594
224	0x3c9607ef	0.01831433
225	0xbd31e588	-0.04343179
226	0xbdc24afa	-0.09486957
227	0x3d9c399b	0.07628175
228	0xbca360e9	-0.019943671
229	0x3cfc408c	0.030792497
230	0x3c6ebf3d	0.014571962
231	0xbc262806	-0.010141378
232	0xbcbc1b14	-0.02296213
233	0x3dd9fbcc	0.106437296
234	0x3cce22bc	0.025163047
235	0xbd3737f2	-0.044731088
236	0xbb030e8c	-0.0019997684
237	0x3dbde69e	0.09272502
238	0xbd05a117	-0.03262433
239	0xbd1c4d9c	-0.03815995
240	0xbcd50eff	-0.026008127
241	0x3a7acc2a	0.0009567166
242	0x3d70ef7e	0.058822148
243	0xbda9e2a4	-0.082951814
244	0x3da2d5c5	0.079509296
245	0xbd92886b	-0.07154926
246	0x3dc12306	0.09430508
247	0xbd420e95	-0.047377188
248	0x3dabb3a6	0.083838746
249	0xbd1441ea	-0.036195673
250	0xbdd55079	-0.104157396
251	0xbd7c4522	-0.061589368
252	0x3de3ce38	0.111233175
253	0xbd03470a	-0.03205017
254	0xbdeefabd	-0.11668918
255	0x3ddae744	0.10688642

fc2.bias f4 [84]
0	0x3ca56c67	0.020193292
1	0x3d89e83f	0.067337506
2	0x3dd93010	0.1060487
3	0x3d436640	0.047704935
4	0xbd397149	-0.045274053
5	0x3d4c9d67	0.049954798
6	0xbd41d632	-0.047323413
7	0x3c2ef92e	0.010679526
8	0x3d11939b	0.03554116
9	0xbdc47ff7	-0.0959472
10	0xbc877797	-0.016536517
11	0x3dc37607	0.09543996
12	0x3df94549	0.12171418
13	0xbda05f68	-0.07830697
14	0xbd3e5169	-0.046464358
15	0xbc8edea3	-0.017440146
16	0x3df88d6c	0.12136349
17	0xbd28dd07	-0.041226413
18	0x3da281de	0.079349265
19	0x3da38d0f	0.07985889
20	0xbd463ef8	-0.048399895
21	0xbd377794	-0.044791773
22	0xbc97697b	-0.018482914
23	0xbd8e30bf	-0.06942891
24	0x3c721a5a	0.0147767905
25	0x3da9fc25	0.08300046
26	0x3e27e3cd	0.16395493
27	0x3d4ce5ed	0.05002396
28	0x3d34fadf	0.04418456
29	0xbda60966	-0.08107261
30	0xbd0509b5	-0.03247996
31	0x3dcf4352	0.10120262
32	0x3d48d4d9	0.049031112
33	0x3bc7539b	0.0060829646
34	0x3d61d919	0.05513868
35	0xbdb84706	-0.08997922
36	0x3d3aca7b	0.045603257
37	0x3d8c804c	0.06860408
38	0x3dc39463	0.09549787
39	0x3e09df53	0.13464098
40	0x3dc8259b	0.09772798
41	0xbd751b72	-0.059840627
42	0xbdba41a8	-0.09094554
43	0x3cf521f8	0.029923424
44	0xbcb940f3	-0.022613978
45	0x3dc733c3	0.0972667
46	0x3ce2e7aa	0.027698357
47	0x3e31ec8b	0.1737539
48	0xbdc63fca	-0.096801355
49	0x3de1fd8f	0.110346906
50	0x3da9c765	0.082899846
51	0x3c973473	0.018457627
52	0x3bcf8a2c	0.00633361
53	0xbdae32ca	-0.08505781
54	0x3d666439	0.056247924
55	0x3bfd5a1c	0.007731689
56	0xbda99c1c	-0.082817286
57	0x3d1a0cf8	0.037610024
58	0xbd90e5db	-0.070750915
59	0xbd294410	-0.041324675
60	0x3d6a1838	0.057152003
61	0x3d51efd0	0.051254094
62	0xbbc65af8	-0.006053325
63	0x3cc542c5	0.02407969
64	0xbc1be205	-0.0095143365
65	0xbd9a650b	-0.07538804
66	0xbd3574fb	-0.044301014
67	0x3d640fe3	0.055679213
68	0x3d8eff3a	0.06982274
69	0x3cb84847	0.022495402
70	0xbd8a115d	-0.06741593
71	0xbd46bd3b	-0.048520308
72	0x3db1a358	0.086737335
73	0x3d07b91e	0.033135526
74	0xbd2c2599	-0.042028043
75	0xbca2ec53	-0.019888079
76	0xbd00ab45	-0.031413335
77	0x3dddb817	0.10826128
78	0xbce56557	-0.028002424
79	0x3df87274	0.12131205
80	0xbb996b7f	-0.004682004
81	0x3d87beb7	0.06628173
82	0x3d1a4cca	0.037670888
83	0xbcb0319d	-0.021508032

fc3.weight f4 [10, 84]
0	0xbe28d21d	-0.16486402
1	0xbed498da	-0.41522866
2	0xbe0f163a	-0.13973323
3	0xbd086a7e	-0.033304684
4	0x3ded1536	0.11576311
5	0x3e33aaa0	0.17545557
6	0xbe56b29e	-0.20966575
7	0xbe4b4e8c	-0.19854182
8	0x3e93c158	0.28858447
9	0x3e261611	0.16219355
10	0x3da2205d	0.07916329
11	0x3e1e5f4f	0.15466045
12	0xbea2af36	-0.317743
13	0x3c8429ed	0.016133273
14	0xbd7ecc60	-0.062206626
15	0xbda53d80	-0.08068371
16	0xbea580f6	-0.32324952
17	0x3de040ff	0.10949897
18	0xbebdf5f2	-0.37101704
19	0xbe0b0b42	-0.13578513
20	0xbd1fa7d7	-0.038978424
21	0xbd078189	-0.03308252
22	0xbdd3fe50	-0.10351241
23	0x3e19b1d4	0.15009242
24	0xbd9ca700	-0.0764904
25	0x3e80ea78	0.25178885
26	0xbe58cf57	-0.21172844
27	0xbcf28579	-0.02960466
28	0x3ebbc60a	0.3667453
29	0xbe390b50	-0.18070722
30	0xbd37e703	-0.044898044
31	0x3dcb028e	0.09912597
32	0x3d61f179	0.055161927
33	0x3d9888c0	0.07447958
34	0x3b9dab95	0.004811714
35	0xbd590ef1	-0.052992765
36	0xbe2d332b	-0.1691405
37	0xbe258a25	-0.16165979
38	0xbb34ce73	-0.0027588874
39	0x3c91619c	0.01774674
40	0xbdf55c5f	-0.11980509
41	0x3dddf51b	0.10837766
42	0xbcf96ce6	-0.030447435
43	0x3e877423	0.26455793
44	0x3dbcf8c4	0.09227136
45	0xbe729e38	-0.23693168
46	0xbd8ed24c	-0.06973705
47	0xbe181a6b	-0.14853828
48	0xbdccd2d7	-0.10001152
49	0xbd61183f	-0.054954764
50	0x3e139753	0.14413194
51	0xbd2f2689	-0.04276136
52	0x3d38bd6e	0.04510253
53	0x3d6e0fdb	0.05812059
54	0x3e2cdd4b	0.16881292
55	0x3b9e8212	0.004837283
56	0x3da6025a	0.08105917
57	0xbcc04fed	-0.023475612
58	0x3c0c90ea	0.008579472
59	0x3b380f0c	0.002808514
60	0x3c6c04eb	0.014405469
61	0x3d9e1dbd	0.07720516
62	0x3ded0c0d	0.11574564
63	0xbcd6dc9b	-0.02622824
64	0x3e0252b8	0.12726867
65	0x3eead57f	0.4586601
66	0xbcd799e7	-0.026318504
67	0x3eaa5444	0.33267415
68	0x3e3a7cef	0.18211721
69	0x3dc67b51	0.096914895
70	0x3c4b18da	0.012396062
71	0xbdb000fc	-0.08593938
72	0xbe834a87	-0.25642797
73	0xbe0e8c8b	-0.139208
74	0x3cdc602f	0.026901333
75	0x3ee5b15d	0.4486188
76	0xbd3443bd	-0.044009913
77	0xbc8cddeb	-0.017195662
78	0x3dd02b26	0.1016448
79	0xbcdeed07	-0.027212633
80	0xbeaab0c5	-0.3333799
81	0xbe4e9748	-0.20174897
82	0xbe730dcb	-0.2373573
83	0xbe7b472c	-0.24538869
84	0xbebd390d	-0.3695759
85	0xbdb1ab0f	-0.08675205
86	0xbe5ac1b3	-0.21362953
87	0xbd185ab7	-0.037195887
88	0xbe76b48f	-0.24092315
89	0xbdadb139	-0.08481068
90	0x3d66ba85	0.056330223
91	0xbea81f16	-0.32836217
92	0x3def84fc	0.11695287
93	0x3e55c9d1	0.20877768
94	0x3e1404cb	0.14454953
95	0xbea04ea3	-0.31309995
96	0x3ecef831	0.4042373
97	0xbcb668d1	-0.022266777
98	0x3d092a6f	0.033487733
99	0xbd9a6a51	-0.075398095
100	0x3de5b3f6	0.112159654
101	0x3c13ad1f	0.009013443
102	0xbe85c26c	-0.26124895
103	0x3d4502a0	0.048098207
104	0x3d0cdb06	0.034388565
105	0xbe042221	-0.12903644
106	0xbdde6ad9	-0.10860223
107	0xbe37a783	-0.17934994
108	0xbe46382a	-0.19357362
109	0x3dae134c	0.08499774
110	0x3e697f35	0.22802432
111	0xbe548c3b	-0.20756619
112	0xbdccf009	-0.100067206
113	0x3d1d4cde	0.038403384
114	0x3ceffa27	0.029294087
115	0x3e887c26	0.26657218
116	0xbe516176	-0.20447335
117	0xbdff4da7	-0.12465983
118	0xbe0850e9	-0.13312115
119	0xbd3754d8	-0.044758648
120	0x3dd45b87	0.1036902
121	0x3e660486	0.22462663
122	0xbd6c1963	-0.0576414
123	0x3ed4f91a	0.415963
124	0xbe180370	-0.14845061
125	0x3d180d64	0.037122145
126	0xbd4008cd	-0.046883393
127	0xbdf833cf	-0.12119257
128	0x3d952d48	0.07284027
129	0xbd56eb71	-0.05247063
130	0x3e1a5829	0.15072693
131	0x3e0e94b5	0.13923915
132	0x3df578bf	0.11985921
133	0x3e483a4d	0.1955349
134	0xbd848e7c	-0.06472489
135	0xbea1433c	-0.31496608
136	0xbd0d1254	-0.034441307
137	0x3e99e10b	0.30054507
138	0xbe43edbf	-0.19133662
139	0x3d9b673c	0.0758805
140	0x3d369e8a	0.04458479
141	0xbce7be22	-0.028288905
142	0xbdf130a6	-0.11776857
143	0x3e4c97f9	0.19979848
144	0x3e508967	0.20364915
145	0xbe9a17b3	-0.30096206
146	0xbdce7e5c	-0.10082695
147	0x3c182a5a	0.009287441
148	0xbda9cfec	-0.08291611
149	0x3bc868be	0.006116002
150	0x3ed87b7d	0.42281714
151	0xbe089f85	-0.13342102
152	0xbe584350	-0.21119428
153	0x3e4ff6de	0.20309016
154	0x3c44cbe3	0.012011501
155	0x3e8acb2c	0.27108133
156	0xbe2534eb	-0.16133468
157	0xbe459b7e	-0.19297597
158	0x3de4ee1b	0.111782275
159	0x3cf06ce0	0.02934879
160	0xbd6487b4	-0.05579348
161	0x3e97a4fb	0.29618058
162	0x3d82c6c6	0.06385569
163	0x3e37ac03	0.17936711
164	0xbd0771a4	-0.03306736
165	0x3e69901e	0.22808883
166	0xbd372e36	-0.044721805
167	0x3e85cc29	0.26132324
168	0x3db5f4ff	0.0888462
169	0xbe0d160b	-0.1377794
170	0x3e2166ad	0.15761824
171	0xbe3a6c67	-0.18205415
172	0x3e8b3c7d	0.27194586
173	0x3df1916a	0.11795314
174	0x3e5f0fa5	0.21783312
175	0xbe456b5f	-0.1927924
176	0xbe1e3a8b	-0.1545202
177	0x3d40bdeb	0.04705612
178	0x3e354006	0.17700204
179	0x3d834380	0.06409359
180	0xbf158701	-0.58409125
181	0xbdad95d7	-0.08475845
182	0x3d3a5b59	0.045497272
183	0x3d99f17b	0.07516762
184	0xbef92a25	-0.48664966
185	0xbcd26fce	-0.025688078
186	0x3ecd2e63	0.40074453
187	0x3e9e66cd	0.30937806
188	0x3e198045	0.14990337
189	0xbe8f11ee	-0.27943367
190	0xbdc34376	-0.095343515
191	0xbea1f973	-0.31635627
192	0xbd93489d	-0.07191584
193	0xbe5bb190	-0.21454453
194	0x3e803d16	0.25046605
195	0x3e6adda6	0.22936115
196	0xbd193031	-0.037399475
197	0x3e3dfeb4	0.18554193
198	0xbdde2dd7	-0.10848587
199	0xbeacf1e6	-0.33778304
200	0xbe43e2ba	-0.19129458
201	0xbd596271	-0.053072397
202	0xbe0292ca	-0.12751308
203	0x3d022b7a	0.031779744
204	0xbd978339	-0.073980756
205	0x3e1f0d65	0.15532453
206	0xbe632a76	-0.22184166
207	0xbd20565d	-0.039144862
208	0xbd9431ef	-0.072360866
209	0x3df3e6e3	0.119092725
210	0x3dcbd9c2	0.099536434
211	0x3ed7da51	0.4215875
212	0xbbd627f0	-0.0065355226
213	0xbc86901c	-0.016426139
214	0xbe5b1385	-0.21394165
215	0x3ea6d932	0.32587582
216	0x3d04e333	0.032443237
217	0xbe201e90	-0.15636659
218	0xbe1b1d3e	-0.15147874
219	0xbebcdbd4	-0.36886466
220	0x3d25d669	0.04048768
221	0x3e697583	0.22798733
222	0x3e320d69	0.17387928
223	0xbd9e56c9	-0.07731397
224	0x3d89808e	0.06713973
225	0x3da955a0	0.08268285
226	0xbd9e08e6	-0.07716541
227	0x3e127285	0.14301498
228	0xbec08b63	-0.37606344
229	0xbdae5475	-0.08512203
230	0xbe8bb754	-0.27288306
231	0xbe32027f	-0.17383765
232	0xbe07b31a	-0.13251916
233	0xbe5e164a	-0.2168819
234	0xbe54e412	-0.20790127
235	0x3d02f75e	0.03197419
236	0x3ea9cf7c	0.3316611
237	0xbe4e467f	-0.2014408
238	0x3d83b1c8	0.064303935
239	0x3e938677	0.28813526
240	0x3d4b5019	0.049636934
241	0xbe6c816f	-0.2309625
242	0xbdd344fa	-0.103158906
243	0x3f021b9b	0.5082337
244	0x3ebb84f5	0.36624876
245	0x3e0083e6	0.12550315
246	0x3dcd99e9	0.10039122
247	0xbd8d6074	-0.069031626
248	0xbeb542fc	-0.35402668
249	0x3ea31dae	0.3185858
250	0x3c671842	0.014104905
251	0x3e0c60a7	0.13708745
252	0xbd3b518f	-0.045732077
253	0x3bf75db1	0.0075490107
254	0x3dcfb08a	0.10141094
255	0x3e662a79	0.2247714

fc3.bias f4 [10]
0	0xbd2932f7	-0.04130837
1	0x3d422d8f	0.04740673
2	0xbc26c3f1	-0.010178552
3	0x3c1872cd	0.009304714
4	0x3ae89e2f	0.0017747338
5	0x3c467f7f	0.012115358
6	0x3c49cfd5	0.012317617
7	0x3c8af926	0.016964506
8	0xbce47f65	-0.027892778
9	0x3cbdbb48	0.023160592
